…
        )
        (2): QuantizedConvReLU2d(128, 256, kernel_size=(1, 1), stride=(1, 1), scale=1.0, zero_point=0)
      )
    )
    (3): Module(
      (conv): Module(
        (0): Module(
          (0): QuantizedConvReLU2d(256, 64, kernel_size=(1, 1), stride=(1, 1), scale=1.0, zero_point=0)
        )
        (1): Module(
          (0): QuantizedConvReLU2d(64, 64, kernel_size=(3, 3), stride=(2, 2), scale=1.0, zero_point=0, padding=(1, 1), groups=64)
        )
        (2): QuantizedConvReLU2d(64, 64, kernel_size=(1, 1), stride=(1, 1), scale=1.0, zero_point=0)
      )
    )
  )
  (loc): Module(
    (0): Conv2d(96, 24, kernel_size=(3, 3), stride=(1, 1), padding=(1, 1))
    (1): Conv2d(1280, 24, kernel_size=(3, 3), stride=(1, 1), padding=(1, 1))
    (2): Conv2d(512, 24, kernel_size=(3, 3), stride=(1, 1), padding=(1, 1))
    (3): Conv2d(256, 24, kernel_size=(3, 3), stride=(1, 1), padding=(1, 1))
    (4): Conv2d(256, 24, kernel_size=(3, 3), stride=(1, 1), padding=(1, 1))
    (5): Conv2d(64, 24, kernel_size=(3, 3), stride=(1, 1), padding=(1, 1))
  )
  (conf): Module(
    (0): Conv2d(96, 24, kernel_size=(3, 3), stride=(1, 1), padding=(1, 1))
    (1): Conv2d(1280, 24, kernel_size=(3, 3), stride=(1, 1), padding=(1, 1))
    (2): Conv2d(512, 24, kernel_size=(3, 3), stride=(1, 1), padding=(1, 1))
    (3): Conv2d(256, 24, kernel_size=(3, 3), stride=(1, 1), padding=(1, 1))
    (4): Conv2d(256, 24, kernel_size=(3, 3), stride=(1, 1), padding=(1, 1))
    (5): Conv2d(64, 24, kernel_size=(3, 3), stride=(1, 1), padding=(1, 1))
  )
)



def forward(self, x):
    mobilenet_0_0_input_scale_0 = self.mobilenet_0_0_input_scale_0
    mobilenet_0_0_input_zero_point_0 = self.mobilenet_0_0_input_zero_point_0
    quantize_per_tensor = torch.quantize_per_tensor(x, mobilenet_0_0_input_scale_0, mobilenet_0_0_input_zero_point_0, torch.quint8);  x = mobilenet_0_0_input_scale_0 = mobilenet_0_0_input_zero_point_0 = None
…
