Measuring time for SSD300(
  (mobilenet): Sequential(
    (0): ConvBNReLU(
      (0): Conv2d(3, 32, kernel_size=(3, 3), stride=(2, 2), padding=(1, 1), bias=False)
      (1): BatchNorm2d(32, eps=1e-05, momentum=0.1, affine=True, track_running_stats=True)
      (2): ReLU(inplace=True)
    )
    (1): InvertedResidual(
      (conv): Sequential(
        (0): ConvBNReLU(
          (0): Conv2d(32, 32, kernel_size=(3, 3), stride=(1, 1), padding=(1, 1), groups=32, bias=False)
          (1): BatchNorm2d(32, eps=1e-05, momentum=0.1, affine=True, track_running_stats=True)
          (2): ReLU(inplace=True)
        )
        (1): Conv2d(32, 16, kernel_size=(1, 1), stride=(1, 1), bias=False)
        (2): BatchNorm2d(16, eps=1e-05, momentum=0.1, affine=True, track_running_stats=True)
      )
      (skip_add): FloatFunctional(
        (activation_post_process): Identity()
      )
    )
    (2): InvertedResidual(
      (conv): Sequential(
        (0): ConvBNReLU(
          (0): Conv2d(16, 96, kernel_size=(1, 1), stride=(1, 1), bias=False)
          (1): BatchNorm2d(96, eps=1e-05, momentum=0.1, affine=True, track_running_stats=True)
          (2): ReLU(inplace=True)
        )
        (1): ConvBNReLU(
          (0): Conv2d(96, 96, kernel_size=(3, 3), stride=(2, 2), padding=(1, 1), groups=96, bias=False)
          (1): BatchNorm2d(96, eps=1e-05, momentum=0.1, affine=True, track_running_stats=True)
          (2): ReLU(inplace=True)
        )
        (2): Conv2d(96, 24, kernel_size=(1, 1), stride=(1, 1), bias=False)
        (3): BatchNorm2d(24, eps=1e-05, momentum=0.1, affine=True, track_running_stats=True)
      )
      (skip_add): FloatFunctional(
        (activation_post_process): Identity()
      )
    )
    (3): InvertedResidual(
      (conv): Sequential(
        (0): ConvBNReLU(
          (0): Conv2d(24, 144, kernel_size=(1, 1), stride=(1, 1), bias=False)
          (1): BatchNorm2d(144, eps=1e-05, momentum=0.1, affine=True, track_running_stats=True)
          (2): ReLU(inplace=True)
        )
        (1): ConvBNReLU(
          (0): Conv2d(144, 144, kernel_size=(3, 3), stride=(1, 1), padding=(1, 1), groups=144, bias=False)
          (1): BatchNorm2d(144, eps=1e-05, momentum=0.1, affine=True, track_running_stats=True)
          (2): ReLU(inplace=True)
        )
        (2): Conv2d(144, 24, kernel_size=(1, 1), stride=(1, 1), bias=False)
        (3): BatchNorm2d(24, eps=1e-05, momentum=0.1, affine=True, track_running_stats=True)
      )
      (skip_add): FloatFunctional(
        (activation_post_process): Identity()
      )
    )
    (4): InvertedResidual(
      (conv): Sequential(
        (0): ConvBNReLU(
          (0): Conv2d(24, 144, kernel_size=(1, 1), stride=(1, 1), bias=False)
          (1): BatchNorm2d(144, eps=1e-05, momentum=0.1, affine=True, track_running_stats=True)
          (2): ReLU(inplace=True)
        )
        (1): ConvBNReLU(
          (0): Conv2d(144, 144, kernel_size=(3, 3), stride=(2, 2), padding=(1, 1), groups=144, bias=False)
          (1): BatchNorm2d(144, eps=1e-05, momentum=0.1, affine=True, track_running_stats=True)
          (2): ReLU(inplace=True)
        )
        (2): Conv2d(144, 32, kernel_size=(1, 1), stride=(1, 1), bias=False)
        (3): BatchNorm2d(32, eps=1e-05, momentum=0.1, affine=True, track_running_stats=True)
      )
      (skip_add): FloatFunctional(
        (activation_post_process): Identity()
      )
    )
    (5): InvertedResidual(
      (conv): Sequential(
        (0): ConvBNReLU(
          (0): Conv2d(32, 192, kernel_size=(1, 1), stride=(1, 1), bias=False)
          (1): BatchNorm2d(192, eps=1e-05, momentum=0.1, affine=True, track_running_stats=True)
          (2): ReLU(inplace=True)
        )
        (1): ConvBNReLU(
          (0): Conv2d(192, 192, kernel_size=(3, 3), stride=(1, 1), padding=(1, 1), groups=192, bias=False)
          (1): BatchNorm2d(192, eps=1e-05, momentum=0.1, affine=True, track_running_stats=True)
          (2): ReLU(inplace=True)
        )
        (2): Conv2d(192, 32, kernel_size=(1, 1), stride=(1, 1), bias=False)
        (3): BatchNorm2d(32, eps=1e-05, momentum=0.1, affine=True, track_running_stats=True)
      )
      (skip_add): FloatFunctional(
        (activation_post_process): Identity()
      )
    )
    (6): InvertedResidual(
      (conv): Sequential(
        (0): ConvBNReLU(
          (0): Conv2d(32, 192, kernel_size=(1, 1), stride=(1, 1), bias=False)
          (1): BatchNorm2d(192, eps=1e-05, momentum=0.1, affine=True, track_running_stats=True)
          (2): ReLU(inplace=True)
        )
        (1): ConvBNReLU(
          (0): Conv2d(192, 192, kernel_size=(3, 3), stride=(1, 1), padding=(1, 1), groups=192, bias=False)
          (1): BatchNorm2d(192, eps=1e-05, momentum=0.1, affine=True, track_running_stats=True)
          (2): ReLU(inplace=True)
        )
        (2): Conv2d(192, 32, kernel_size=(1, 1), stride=(1, 1), bias=False)
        (3): BatchNorm2d(32, eps=1e-05, momentum=0.1, affine=True, track_running_stats=True)
      )
      (skip_add): FloatFunctional(
        (activation_post_process): Identity()
      )
    )
    (7): InvertedResidual(
      (conv): Sequential(
        (0): ConvBNReLU(
          (0): Conv2d(32, 192, kernel_size=(1, 1), stride=(1, 1), bias=False)
          (1): BatchNorm2d(192, eps=1e-05, momentum=0.1, affine=True, track_running_stats=True)
          (2): ReLU(inplace=True)
        )
        (1): ConvBNReLU(
          (0): Conv2d(192, 192, kernel_size=(3, 3), stride=(2, 2), padding=(1, 1), groups=192, bias=False)
          (1): BatchNorm2d(192, eps=1e-05, momentum=0.1, affine=True, track_running_stats=True)
          (2): ReLU(inplace=True)
        )
        (2): Conv2d(192, 64, kernel_size=(1, 1), stride=(1, 1), bias=False)
        (3): BatchNorm2d(64, eps=1e-05, momentum=0.1, affine=True, track_running_stats=True)
      )
      (skip_add): FloatFunctional(
        (activation_post_process): Identity()
      )
    )
    (8): InvertedResidual(
      (conv): Sequential(
        (0): ConvBNReLU(
          (0): Conv2d(64, 384, kernel_size=(1, 1), stride=(1, 1), bias=False)
          (1): BatchNorm2d(384, eps=1e-05, momentum=0.1, affine=True, track_running_stats=True)
          (2): ReLU(inplace=True)
        )
        (1): ConvBNReLU(
          (0): Conv2d(384, 384, kernel_size=(3, 3), stride=(1, 1), padding=(1, 1), groups=384, bias=False)
          (1): BatchNorm2d(384, eps=1e-05, momentum=0.1, affine=True, track_running_stats=True)
          (2): ReLU(inplace=True)
        )
        (2): Conv2d(384, 64, kernel_size=(1, 1), stride=(1, 1), bias=False)
        (3): BatchNorm2d(64, eps=1e-05, momentum=0.1, affine=True, track_running_stats=True)
      )
      (skip_add): FloatFunctional(
        (activation_post_process): Identity()
      )
    )
    (9): InvertedResidual(
      (conv): Sequential(
        (0): ConvBNReLU(
          (0): Conv2d(64, 384, kernel_size=(1, 1), stride=(1, 1), bias=False)
          (1): BatchNorm2d(384, eps=1e-05, momentum=0.1, affine=True, track_running_stats=True)
          (2): ReLU(inplace=True)
        )
        (1): ConvBNReLU(
          (0): Conv2d(384, 384, kernel_size=(3, 3), stride=(1, 1), padding=(1, 1), groups=384, bias=False)
          (1): BatchNorm2d(384, eps=1e-05, momentum=0.1, affine=True, track_running_stats=True)
          (2): ReLU(inplace=True)
        )
        (2): Conv2d(384, 64, kernel_size=(1, 1), stride=(1, 1), bias=False)
        (3): BatchNorm2d(64, eps=1e-05, momentum=0.1, affine=True, track_running_stats=True)
      )
      (skip_add): FloatFunctional(
        (activation_post_process): Identity()
      )
    )
    (10): InvertedResidual(
      (conv): Sequential(
        (0): ConvBNReLU(
          (0): Conv2d(64, 384, kernel_size=(1, 1), stride=(1, 1), bias=False)
          (1): BatchNorm2d(384, eps=1e-05, momentum=0.1, affine=True, track_running_stats=True)
          (2): ReLU(inplace=True)
        )
        (1): ConvBNReLU(
          (0): Conv2d(384, 384, kernel_size=(3, 3), stride=(1, 1), padding=(1, 1), groups=384, bias=False)
          (1): BatchNorm2d(384, eps=1e-05, momentum=0.1, affine=True, track_running_stats=True)
          (2): ReLU(inplace=True)
        )
        (2): Conv2d(384, 64, kernel_size=(1, 1), stride=(1, 1), bias=False)
        (3): BatchNorm2d(64, eps=1e-05, momentum=0.1, affine=True, track_running_stats=True)
      )
      (skip_add): FloatFunctional(
        (activation_post_process): Identity()
      )
    )
    (11): InvertedResidual(
      (conv): Sequential(
        (0): ConvBNReLU(
          (0): Conv2d(64, 384, kernel_size=(1, 1), stride=(1, 1), bias=False)
          (1): BatchNorm2d(384, eps=1e-05, momentum=0.1, affine=True, track_running_stats=True)
          (2): ReLU(inplace=True)
        )
        (1): ConvBNReLU(
          (0): Conv2d(384, 384, kernel_size=(3, 3), stride=(1, 1), padding=(1, 1), groups=384, bias=False)
          (1): BatchNorm2d(384, eps=1e-05, momentum=0.1, affine=True, track_running_stats=True)
          (2): ReLU(inplace=True)
        )
        (2): Conv2d(384, 96, kernel_size=(1, 1), stride=(1, 1), bias=False)
        (3): BatchNorm2d(96, eps=1e-05, momentum=0.1, affine=True, track_running_stats=True)
      )
      (skip_add): FloatFunctional(
        (activation_post_process): Identity()
      )
    )
    (12): InvertedResidual(
      (conv): Sequential(
        (0): ConvBNReLU(
          (0): Conv2d(96, 576, kernel_size=(1, 1), stride=(1, 1), bias=False)
          (1): BatchNorm2d(576, eps=1e-05, momentum=0.1, affine=True, track_running_stats=True)
          (2): ReLU(inplace=True)
        )
        (1): ConvBNReLU(
          (0): Conv2d(576, 576, kernel_size=(3, 3), stride=(1, 1), padding=(1, 1), groups=576, bias=False)
          (1): BatchNorm2d(576, eps=1e-05, momentum=0.1, affine=True, track_running_stats=True)
          (2): ReLU(inplace=True)
        )
        (2): Conv2d(576, 96, kernel_size=(1, 1), stride=(1, 1), bias=False)
        (3): BatchNorm2d(96, eps=1e-05, momentum=0.1, affine=True, track_running_stats=True)
      )
      (skip_add): FloatFunctional(
        (activation_post_process): Identity()
      )
    )
    (13): InvertedResidual(
      (conv): Sequential(
        (0): ConvBNReLU(
          (0): Conv2d(96, 576, kernel_size=(1, 1), stride=(1, 1), bias=False)
          (1): BatchNorm2d(576, eps=1e-05, momentum=0.1, affine=True, track_running_stats=True)
          (2): ReLU(inplace=True)
        )
        (1): ConvBNReLU(
          (0): Conv2d(576, 576, kernel_size=(3, 3), stride=(1, 1), padding=(1, 1), groups=576, bias=False)
          (1): BatchNorm2d(576, eps=1e-05, momentum=0.1, affine=True, track_running_stats=True)
          (2): ReLU(inplace=True)
        )
        (2): Conv2d(576, 96, kernel_size=(1, 1), stride=(1, 1), bias=False)
        (3): BatchNorm2d(96, eps=1e-05, momentum=0.1, affine=True, track_running_stats=True)
      )
      (skip_add): FloatFunctional(
        (activation_post_process): Identity()
      )
    )
    (14): InvertedResidual(
      (conv): Sequential(
        (0): ConvBNReLU(
          (0): Conv2d(96, 576, kernel_size=(1, 1), stride=(1, 1), bias=False)
          (1): BatchNorm2d(576, eps=1e-05, momentum=0.1, affine=True, track_running_stats=True)
          (2): ReLU(inplace=True)
        )
        (1): ConvBNReLU(
          (0): Conv2d(576, 576, kernel_size=(3, 3), stride=(2, 2), padding=(1, 1), groups=576, bias=False)
          (1): BatchNorm2d(576, eps=1e-05, momentum=0.1, affine=True, track_running_stats=True)
          (2): ReLU(inplace=True)
        )
        (2): Conv2d(576, 160, kernel_size=(1, 1), stride=(1, 1), bias=False)
        (3): BatchNorm2d(160, eps=1e-05, momentum=0.1, affine=True, track_running_stats=True)
      )
      (skip_add): FloatFunctional(
        (activation_post_process): Identity()
      )
    )
    (15): InvertedResidual(
      (conv): Sequential(
        (0): ConvBNReLU(
          (0): Conv2d(160, 960, kernel_size=(1, 1), stride=(1, 1), bias=False)
          (1): BatchNorm2d(960, eps=1e-05, momentum=0.1, affine=True, track_running_stats=True)
          (2): ReLU(inplace=True)
        )
        (1): ConvBNReLU(
          (0): Conv2d(960, 960, kernel_size=(3, 3), stride=(1, 1), padding=(1, 1), groups=960, bias=False)
          (1): BatchNorm2d(960, eps=1e-05, momentum=0.1, affine=True, track_running_stats=True)
          (2): ReLU(inplace=True)
        )
        (2): Conv2d(960, 160, kernel_size=(1, 1), stride=(1, 1), bias=False)
        (3): BatchNorm2d(160, eps=1e-05, momentum=0.1, affine=True, track_running_stats=True)
      )
      (skip_add): FloatFunctional(
        (activation_post_process): Identity()
      )
    )
    (16): InvertedResidual(
      (conv): Sequential(
        (0): ConvBNReLU(
          (0): Conv2d(160, 960, kernel_size=(1, 1), stride=(1, 1), bias=False)
          (1): BatchNorm2d(960, eps=1e-05, momentum=0.1, affine=True, track_running_stats=True)
          (2): ReLU(inplace=True)
        )
        (1): ConvBNReLU(
          (0): Conv2d(960, 960, kernel_size=(3, 3), stride=(1, 1), padding=(1, 1), groups=960, bias=False)
          (1): BatchNorm2d(960, eps=1e-05, momentum=0.1, affine=True, track_running_stats=True)
          (2): ReLU(inplace=True)
        )
        (2): Conv2d(960, 160, kernel_size=(1, 1), stride=(1, 1), bias=False)
        (3): BatchNorm2d(160, eps=1e-05, momentum=0.1, affine=True, track_running_stats=True)
      )
      (skip_add): FloatFunctional(
        (activation_post_process): Identity()
      )
    )
    (17): InvertedResidual(
      (conv): Sequential(
        (0): ConvBNReLU(
          (0): Conv2d(160, 960, kernel_size=(1, 1), stride=(1, 1), bias=False)
          (1): BatchNorm2d(960, eps=1e-05, momentum=0.1, affine=True, track_running_stats=True)
          (2): ReLU(inplace=True)
        )
        (1): ConvBNReLU(
          (0): Conv2d(960, 960, kernel_size=(3, 3), stride=(1, 1), padding=(1, 1), groups=960, bias=False)
          (1): BatchNorm2d(960, eps=1e-05, momentum=0.1, affine=True, track_running_stats=True)
          (2): ReLU(inplace=True)
        )
        (2): Conv2d(960, 320, kernel_size=(1, 1), stride=(1, 1), bias=False)
        (3): BatchNorm2d(320, eps=1e-05, momentum=0.1, affine=True, track_running_stats=True)
      )
      (skip_add): FloatFunctional(
        (activation_post_process): Identity()
      )
    )
    (18): ConvBNReLU(
      (0): Conv2d(320, 1280, kernel_size=(1, 1), stride=(1, 1), bias=False)
      (1): BatchNorm2d(1280, eps=1e-05, momentum=0.1, affine=True, track_running_stats=True)
      (2): ReLU(inplace=True)
    )
  )
  (extras): ModuleList(
    (0): InvertedResidual(
      (conv): Sequential(
        (0): ConvBNReLU(
          (0): Conv2d(1280, 256, kernel_size=(1, 1), stride=(1, 1), bias=False)
          (1): BatchNorm2d(256, eps=1e-05, momentum=0.1, affine=True, track_running_stats=True)
          (2): ReLU(inplace=True)
        )
        (1): ConvBNReLU(
          (0): Conv2d(256, 256, kernel_size=(3, 3), stride=(2, 2), padding=(1, 1), groups=256, bias=False)
          (1): BatchNorm2d(256, eps=1e-05, momentum=0.1, affine=True, track_running_stats=True)
          (2): ReLU(inplace=True)
        )
        (2): Conv2d(256, 512, kernel_size=(1, 1), stride=(1, 1), bias=False)
        (3): BatchNorm2d(512, eps=1e-05, momentum=0.1, affine=True, track_running_stats=True)
      )
      (skip_add): FloatFunctional(
        (activation_post_process): Identity()
      )
    )
    (1): InvertedResidual(
      (conv): Sequential(
        (0): ConvBNReLU(
          (0): Conv2d(512, 128, kernel_size=(1, 1), stride=(1, 1), bias=False)
          (1): BatchNorm2d(128, eps=1e-05, momentum=0.1, affine=True, track_running_stats=True)
          (2): ReLU(inplace=True)
        )
        (1): ConvBNReLU(
          (0): Conv2d(128, 128, kernel_size=(3, 3), stride=(2, 2), padding=(1, 1), groups=128, bias=False)
          (1): BatchNorm2d(128, eps=1e-05, momentum=0.1, affine=True, track_running_stats=True)
          (2): ReLU(inplace=True)
        )
        (2): Conv2d(128, 256, kernel_size=(1, 1), stride=(1, 1), bias=False)
        (3): BatchNorm2d(256, eps=1e-05, momentum=0.1, affine=True, track_running_stats=True)
      )
      (skip_add): FloatFunctional(
        (activation_post_process): Identity()
      )
    )
    (2): InvertedResidual(
      (conv): Sequential(
        (0): ConvBNReLU(
          (0): Conv2d(256, 128, kernel_size=(1, 1), stride=(1, 1), bias=False)
          (1): BatchNorm2d(128, eps=1e-05, momentum=0.1, affine=True, track_running_stats=True)
          (2): ReLU(inplace=True)
        )
        (1): ConvBNReLU(
          (0): Conv2d(128, 128, kernel_size=(3, 3), stride=(2, 2), padding=(1, 1), groups=128, bias=False)
          (1): BatchNorm2d(128, eps=1e-05, momentum=0.1, affine=True, track_running_stats=True)
          (2): ReLU(inplace=True)
        )
        (2): Conv2d(128, 256, kernel_size=(1, 1), stride=(1, 1), bias=False)
        (3): BatchNorm2d(256, eps=1e-05, momentum=0.1, affine=True, track_running_stats=True)
      )
      (skip_add): FloatFunctional(
        (activation_post_process): Identity()
      )
    )
    (3): InvertedResidual(
      (conv): Sequential(
        (0): ConvBNReLU(
          (0): Conv2d(256, 64, kernel_size=(1, 1), stride=(1, 1), bias=False)
          (1): BatchNorm2d(64, eps=1e-05, momentum=0.1, affine=True, track_running_stats=True)
          (2): ReLU(inplace=True)
        )
        (1): ConvBNReLU(
          (0): Conv2d(64, 64, kernel_size=(3, 3), stride=(2, 2), padding=(1, 1), groups=64, bias=False)
          (1): BatchNorm2d(64, eps=1e-05, momentum=0.1, affine=True, track_running_stats=True)
          (2): ReLU(inplace=True)
        )
        (2): Conv2d(64, 64, kernel_size=(1, 1), stride=(1, 1), bias=False)
        (3): BatchNorm2d(64, eps=1e-05, momentum=0.1, affine=True, track_running_stats=True)
      )
      (skip_add): FloatFunctional(
        (activation_post_process): Identity()
      )
    )
  )
  (L2Norm): L2Norm()
  (loc): ModuleList(
    (0): Conv2d(96, 24, kernel_size=(3, 3), stride=(1, 1), padding=(1, 1))
    (1): Conv2d(1280, 24, kernel_size=(3, 3), stride=(1, 1), padding=(1, 1))
    (2): Conv2d(512, 24, kernel_size=(3, 3), stride=(1, 1), padding=(1, 1))
    (3): Conv2d(256, 24, kernel_size=(3, 3), stride=(1, 1), padding=(1, 1))
    (4): Conv2d(256, 24, kernel_size=(3, 3), stride=(1, 1), padding=(1, 1))
    (5): Conv2d(64, 24, kernel_size=(3, 3), stride=(1, 1), padding=(1, 1))
  )
  (conf): ModuleList(
    (0): Conv2d(96, 24, kernel_size=(3, 3), stride=(1, 1), padding=(1, 1))
    (1): Conv2d(1280, 24, kernel_size=(3, 3), stride=(1, 1), padding=(1, 1))
    (2): Conv2d(512, 24, kernel_size=(3, 3), stride=(1, 1), padding=(1, 1))
    (3): Conv2d(256, 24, kernel_size=(3, 3), stride=(1, 1), padding=(1, 1))
    (4): Conv2d(256, 24, kernel_size=(3, 3), stride=(1, 1), padding=(1, 1))
    (5): Conv2d(64, 24, kernel_size=(3, 3), stride=(1, 1), padding=(1, 1))
  )
)
Mean time: 41.735 ms
Measuring time for Sequential(
  (0): ConvBNReLU(
    (0): Conv2d(3, 32, kernel_size=(3, 3), stride=(2, 2), padding=(1, 1), bias=False)
    (1): BatchNorm2d(32, eps=1e-05, momentum=0.1, affine=True, track_running_stats=True)
    (2): ReLU(inplace=True)
  )
  (1): InvertedResidual(
    (conv): Sequential(
      (0): ConvBNReLU(
        (0): Conv2d(32, 32, kernel_size=(3, 3), stride=(1, 1), padding=(1, 1), groups=32, bias=False)
        (1): BatchNorm2d(32, eps=1e-05, momentum=0.1, affine=True, track_running_stats=True)
        (2): ReLU(inplace=True)
      )
      (1): Conv2d(32, 16, kernel_size=(1, 1), stride=(1, 1), bias=False)
      (2): BatchNorm2d(16, eps=1e-05, momentum=0.1, affine=True, track_running_stats=True)
    )
    (skip_add): FloatFunctional(
      (activation_post_process): Identity()
    )
  )
  (2): InvertedResidual(
    (conv): Sequential(
      (0): ConvBNReLU(
        (0): Conv2d(16, 96, kernel_size=(1, 1), stride=(1, 1), bias=False)
        (1): BatchNorm2d(96, eps=1e-05, momentum=0.1, affine=True, track_running_stats=True)
        (2): ReLU(inplace=True)
      )
      (1): ConvBNReLU(
        (0): Conv2d(96, 96, kernel_size=(3, 3), stride=(2, 2), padding=(1, 1), groups=96, bias=False)
        (1): BatchNorm2d(96, eps=1e-05, momentum=0.1, affine=True, track_running_stats=True)
        (2): ReLU(inplace=True)
      )
      (2): Conv2d(96, 24, kernel_size=(1, 1), stride=(1, 1), bias=False)
      (3): BatchNorm2d(24, eps=1e-05, momentum=0.1, affine=True, track_running_stats=True)
    )
    (skip_add): FloatFunctional(
      (activation_post_process): Identity()
    )
  )
  (3): InvertedResidual(
    (conv): Sequential(
      (0): ConvBNReLU(
        (0): Conv2d(24, 144, kernel_size=(1, 1), stride=(1, 1), bias=False)
        (1): BatchNorm2d(144, eps=1e-05, momentum=0.1, affine=True, track_running_stats=True)
        (2): ReLU(inplace=True)
      )
      (1): ConvBNReLU(
        (0): Conv2d(144, 144, kernel_size=(3, 3), stride=(1, 1), padding=(1, 1), groups=144, bias=False)
        (1): BatchNorm2d(144, eps=1e-05, momentum=0.1, affine=True, track_running_stats=True)
        (2): ReLU(inplace=True)
      )
      (2): Conv2d(144, 24, kernel_size=(1, 1), stride=(1, 1), bias=False)
      (3): BatchNorm2d(24, eps=1e-05, momentum=0.1, affine=True, track_running_stats=True)
    )
    (skip_add): FloatFunctional(
      (activation_post_process): Identity()
    )
  )
  (4): InvertedResidual(
    (conv): Sequential(
      (0): ConvBNReLU(
        (0): Conv2d(24, 144, kernel_size=(1, 1), stride=(1, 1), bias=False)
        (1): BatchNorm2d(144, eps=1e-05, momentum=0.1, affine=True, track_running_stats=True)
        (2): ReLU(inplace=True)
      )
      (1): ConvBNReLU(
        (0): Conv2d(144, 144, kernel_size=(3, 3), stride=(2, 2), padding=(1, 1), groups=144, bias=False)
        (1): BatchNorm2d(144, eps=1e-05, momentum=0.1, affine=True, track_running_stats=True)
        (2): ReLU(inplace=True)
      )
      (2): Conv2d(144, 32, kernel_size=(1, 1), stride=(1, 1), bias=False)
      (3): BatchNorm2d(32, eps=1e-05, momentum=0.1, affine=True, track_running_stats=True)
    )
    (skip_add): FloatFunctional(
      (activation_post_process): Identity()
    )
  )
  (5): InvertedResidual(
    (conv): Sequential(
      (0): ConvBNReLU(
        (0): Conv2d(32, 192, kernel_size=(1, 1), stride=(1, 1), bias=False)
        (1): BatchNorm2d(192, eps=1e-05, momentum=0.1, affine=True, track_running_stats=True)
        (2): ReLU(inplace=True)
      )
      (1): ConvBNReLU(
        (0): Conv2d(192, 192, kernel_size=(3, 3), stride=(1, 1), padding=(1, 1), groups=192, bias=False)
        (1): BatchNorm2d(192, eps=1e-05, momentum=0.1, affine=True, track_running_stats=True)
        (2): ReLU(inplace=True)
      )
      (2): Conv2d(192, 32, kernel_size=(1, 1), stride=(1, 1), bias=False)
      (3): BatchNorm2d(32, eps=1e-05, momentum=0.1, affine=True, track_running_stats=True)
    )
    (skip_add): FloatFunctional(
      (activation_post_process): Identity()
    )
  )
  (6): InvertedResidual(
    (conv): Sequential(
      (0): ConvBNReLU(
        (0): Conv2d(32, 192, kernel_size=(1, 1), stride=(1, 1), bias=False)
        (1): BatchNorm2d(192, eps=1e-05, momentum=0.1, affine=True, track_running_stats=True)
        (2): ReLU(inplace=True)
      )
      (1): ConvBNReLU(
        (0): Conv2d(192, 192, kernel_size=(3, 3), stride=(1, 1), padding=(1, 1), groups=192, bias=False)
        (1): BatchNorm2d(192, eps=1e-05, momentum=0.1, affine=True, track_running_stats=True)
        (2): ReLU(inplace=True)
      )
      (2): Conv2d(192, 32, kernel_size=(1, 1), stride=(1, 1), bias=False)
      (3): BatchNorm2d(32, eps=1e-05, momentum=0.1, affine=True, track_running_stats=True)
    )
    (skip_add): FloatFunctional(
      (activation_post_process): Identity()
    )
  )
  (7): InvertedResidual(
    (conv): Sequential(
      (0): ConvBNReLU(
        (0): Conv2d(32, 192, kernel_size=(1, 1), stride=(1, 1), bias=False)
        (1): BatchNorm2d(192, eps=1e-05, momentum=0.1, affine=True, track_running_stats=True)
        (2): ReLU(inplace=True)
      )
      (1): ConvBNReLU(
        (0): Conv2d(192, 192, kernel_size=(3, 3), stride=(2, 2), padding=(1, 1), groups=192, bias=False)
        (1): BatchNorm2d(192, eps=1e-05, momentum=0.1, affine=True, track_running_stats=True)
        (2): ReLU(inplace=True)
      )
      (2): Conv2d(192, 64, kernel_size=(1, 1), stride=(1, 1), bias=False)
      (3): BatchNorm2d(64, eps=1e-05, momentum=0.1, affine=True, track_running_stats=True)
    )
    (skip_add): FloatFunctional(
      (activation_post_process): Identity()
    )
  )
  (8): InvertedResidual(
    (conv): Sequential(
      (0): ConvBNReLU(
        (0): Conv2d(64, 384, kernel_size=(1, 1), stride=(1, 1), bias=False)
        (1): BatchNorm2d(384, eps=1e-05, momentum=0.1, affine=True, track_running_stats=True)
        (2): ReLU(inplace=True)
      )
      (1): ConvBNReLU(
        (0): Conv2d(384, 384, kernel_size=(3, 3), stride=(1, 1), padding=(1, 1), groups=384, bias=False)
        (1): BatchNorm2d(384, eps=1e-05, momentum=0.1, affine=True, track_running_stats=True)
        (2): ReLU(inplace=True)
      )
      (2): Conv2d(384, 64, kernel_size=(1, 1), stride=(1, 1), bias=False)
      (3): BatchNorm2d(64, eps=1e-05, momentum=0.1, affine=True, track_running_stats=True)
    )
    (skip_add): FloatFunctional(
      (activation_post_process): Identity()
    )
  )
  (9): InvertedResidual(
    (conv): Sequential(
      (0): ConvBNReLU(
        (0): Conv2d(64, 384, kernel_size=(1, 1), stride=(1, 1), bias=False)
        (1): BatchNorm2d(384, eps=1e-05, momentum=0.1, affine=True, track_running_stats=True)
        (2): ReLU(inplace=True)
      )
      (1): ConvBNReLU(
        (0): Conv2d(384, 384, kernel_size=(3, 3), stride=(1, 1), padding=(1, 1), groups=384, bias=False)
        (1): BatchNorm2d(384, eps=1e-05, momentum=0.1, affine=True, track_running_stats=True)
        (2): ReLU(inplace=True)
      )
      (2): Conv2d(384, 64, kernel_size=(1, 1), stride=(1, 1), bias=False)
      (3): BatchNorm2d(64, eps=1e-05, momentum=0.1, affine=True, track_running_stats=True)
    )
    (skip_add): FloatFunctional(
      (activation_post_process): Identity()
    )
  )
  (10): InvertedResidual(
    (conv): Sequential(
      (0): ConvBNReLU(
        (0): Conv2d(64, 384, kernel_size=(1, 1), stride=(1, 1), bias=False)
        (1): BatchNorm2d(384, eps=1e-05, momentum=0.1, affine=True, track_running_stats=True)
        (2): ReLU(inplace=True)
      )
      (1): ConvBNReLU(
        (0): Conv2d(384, 384, kernel_size=(3, 3), stride=(1, 1), padding=(1, 1), groups=384, bias=False)
        (1): BatchNorm2d(384, eps=1e-05, momentum=0.1, affine=True, track_running_stats=True)
        (2): ReLU(inplace=True)
      )
      (2): Conv2d(384, 64, kernel_size=(1, 1), stride=(1, 1), bias=False)
      (3): BatchNorm2d(64, eps=1e-05, momentum=0.1, affine=True, track_running_stats=True)
    )
    (skip_add): FloatFunctional(
      (activation_post_process): Identity()
    )
  )
  (11): InvertedResidual(
    (conv): Sequential(
      (0): ConvBNReLU(
        (0): Conv2d(64, 384, kernel_size=(1, 1), stride=(1, 1), bias=False)
        (1): BatchNorm2d(384, eps=1e-05, momentum=0.1, affine=True, track_running_stats=True)
        (2): ReLU(inplace=True)
      )
      (1): ConvBNReLU(
        (0): Conv2d(384, 384, kernel_size=(3, 3), stride=(1, 1), padding=(1, 1), groups=384, bias=False)
        (1): BatchNorm2d(384, eps=1e-05, momentum=0.1, affine=True, track_running_stats=True)
        (2): ReLU(inplace=True)
      )
      (2): Conv2d(384, 96, kernel_size=(1, 1), stride=(1, 1), bias=False)
      (3): BatchNorm2d(96, eps=1e-05, momentum=0.1, affine=True, track_running_stats=True)
    )
    (skip_add): FloatFunctional(
      (activation_post_process): Identity()
    )
  )
  (12): InvertedResidual(
    (conv): Sequential(
      (0): ConvBNReLU(
        (0): Conv2d(96, 576, kernel_size=(1, 1), stride=(1, 1), bias=False)
        (1): BatchNorm2d(576, eps=1e-05, momentum=0.1, affine=True, track_running_stats=True)
        (2): ReLU(inplace=True)
      )
      (1): ConvBNReLU(
        (0): Conv2d(576, 576, kernel_size=(3, 3), stride=(1, 1), padding=(1, 1), groups=576, bias=False)
        (1): BatchNorm2d(576, eps=1e-05, momentum=0.1, affine=True, track_running_stats=True)
        (2): ReLU(inplace=True)
      )
      (2): Conv2d(576, 96, kernel_size=(1, 1), stride=(1, 1), bias=False)
      (3): BatchNorm2d(96, eps=1e-05, momentum=0.1, affine=True, track_running_stats=True)
    )
    (skip_add): FloatFunctional(
      (activation_post_process): Identity()
    )
  )
  (13): InvertedResidual(
    (conv): Sequential(
      (0): ConvBNReLU(
        (0): Conv2d(96, 576, kernel_size=(1, 1), stride=(1, 1), bias=False)
        (1): BatchNorm2d(576, eps=1e-05, momentum=0.1, affine=True, track_running_stats=True)
        (2): ReLU(inplace=True)
      )
      (1): ConvBNReLU(
        (0): Conv2d(576, 576, kernel_size=(3, 3), stride=(1, 1), padding=(1, 1), groups=576, bias=False)
        (1): BatchNorm2d(576, eps=1e-05, momentum=0.1, affine=True, track_running_stats=True)
        (2): ReLU(inplace=True)
      )
      (2): Conv2d(576, 96, kernel_size=(1, 1), stride=(1, 1), bias=False)
      (3): BatchNorm2d(96, eps=1e-05, momentum=0.1, affine=True, track_running_stats=True)
    )
    (skip_add): FloatFunctional(
      (activation_post_process): Identity()
    )
  )
  (14): InvertedResidual(
    (conv): Sequential(
      (0): ConvBNReLU(
        (0): Conv2d(96, 576, kernel_size=(1, 1), stride=(1, 1), bias=False)
        (1): BatchNorm2d(576, eps=1e-05, momentum=0.1, affine=True, track_running_stats=True)
        (2): ReLU(inplace=True)
      )
      (1): ConvBNReLU(
        (0): Conv2d(576, 576, kernel_size=(3, 3), stride=(2, 2), padding=(1, 1), groups=576, bias=False)
        (1): BatchNorm2d(576, eps=1e-05, momentum=0.1, affine=True, track_running_stats=True)
        (2): ReLU(inplace=True)
      )
      (2): Conv2d(576, 160, kernel_size=(1, 1), stride=(1, 1), bias=False)
      (3): BatchNorm2d(160, eps=1e-05, momentum=0.1, affine=True, track_running_stats=True)
    )
    (skip_add): FloatFunctional(
      (activation_post_process): Identity()
    )
  )
  (15): InvertedResidual(
    (conv): Sequential(
      (0): ConvBNReLU(
        (0): Conv2d(160, 960, kernel_size=(1, 1), stride=(1, 1), bias=False)
        (1): BatchNorm2d(960, eps=1e-05, momentum=0.1, affine=True, track_running_stats=True)
        (2): ReLU(inplace=True)
      )
      (1): ConvBNReLU(
        (0): Conv2d(960, 960, kernel_size=(3, 3), stride=(1, 1), padding=(1, 1), groups=960, bias=False)
        (1): BatchNorm2d(960, eps=1e-05, momentum=0.1, affine=True, track_running_stats=True)
        (2): ReLU(inplace=True)
      )
      (2): Conv2d(960, 160, kernel_size=(1, 1), stride=(1, 1), bias=False)
      (3): BatchNorm2d(160, eps=1e-05, momentum=0.1, affine=True, track_running_stats=True)
    )
    (skip_add): FloatFunctional(
      (activation_post_process): Identity()
    )
  )
  (16): InvertedResidual(
    (conv): Sequential(
      (0): ConvBNReLU(
        (0): Conv2d(160, 960, kernel_size=(1, 1), stride=(1, 1), bias=False)
        (1): BatchNorm2d(960, eps=1e-05, momentum=0.1, affine=True, track_running_stats=True)
        (2): ReLU(inplace=True)
      )
      (1): ConvBNReLU(
        (0): Conv2d(960, 960, kernel_size=(3, 3), stride=(1, 1), padding=(1, 1), groups=960, bias=False)
        (1): BatchNorm2d(960, eps=1e-05, momentum=0.1, affine=True, track_running_stats=True)
        (2): ReLU(inplace=True)
      )
      (2): Conv2d(960, 160, kernel_size=(1, 1), stride=(1, 1), bias=False)
      (3): BatchNorm2d(160, eps=1e-05, momentum=0.1, affine=True, track_running_stats=True)
    )
    (skip_add): FloatFunctional(
      (activation_post_process): Identity()
    )
  )
  (17): InvertedResidual(
    (conv): Sequential(
      (0): ConvBNReLU(
        (0): Conv2d(160, 960, kernel_size=(1, 1), stride=(1, 1), bias=False)
        (1): BatchNorm2d(960, eps=1e-05, momentum=0.1, affine=True, track_running_stats=True)
        (2): ReLU(inplace=True)
      )
      (1): ConvBNReLU(
        (0): Conv2d(960, 960, kernel_size=(3, 3), stride=(1, 1), padding=(1, 1), groups=960, bias=False)
        (1): BatchNorm2d(960, eps=1e-05, momentum=0.1, affine=True, track_running_stats=True)
        (2): ReLU(inplace=True)
      )
      (2): Conv2d(960, 320, kernel_size=(1, 1), stride=(1, 1), bias=False)
      (3): BatchNorm2d(320, eps=1e-05, momentum=0.1, affine=True, track_running_stats=True)
    )
    (skip_add): FloatFunctional(
      (activation_post_process): Identity()
    )
  )
  (18): ConvBNReLU(
    (0): Conv2d(320, 1280, kernel_size=(1, 1), stride=(1, 1), bias=False)
    (1): BatchNorm2d(1280, eps=1e-05, momentum=0.1, affine=True, track_running_stats=True)
    (2): ReLU(inplace=True)
  )
)
Mean time: 38.643 ms
Measuring time for ConvBNReLU(
  (0): Conv2d(3, 32, kernel_size=(3, 3), stride=(2, 2), padding=(1, 1), bias=False)
  (1): BatchNorm2d(32, eps=1e-05, momentum=0.1, affine=True, track_running_stats=True)
  (2): ReLU(inplace=True)
)
Mean time: 38.633 ms
Measuring time for Conv2d(3, 32, kernel_size=(3, 3), stride=(2, 2), padding=(1, 1), bias=False)
Mean time: 39.460 ms
Measuring time for BatchNorm2d(32, eps=1e-05, momentum=0.1, affine=True, track_running_stats=True)
Mean time: 37.423 ms
Measuring time for ReLU(inplace=True)
Mean time: 39.231 ms
Measuring time for InvertedResidual(
  (conv): Sequential(
    (0): ConvBNReLU(
      (0): Conv2d(32, 32, kernel_size=(3, 3), stride=(1, 1), padding=(1, 1), groups=32, bias=False)
      (1): BatchNorm2d(32, eps=1e-05, momentum=0.1, affine=True, track_running_stats=True)
      (2): ReLU(inplace=True)
    )
    (1): Conv2d(32, 16, kernel_size=(1, 1), stride=(1, 1), bias=False)
    (2): BatchNorm2d(16, eps=1e-05, momentum=0.1, affine=True, track_running_stats=True)
  )
  (skip_add): FloatFunctional(
    (activation_post_process): Identity()
  )
)
Mean time: 38.236 ms
Measuring time for Sequential(
  (0): ConvBNReLU(
    (0): Conv2d(32, 32, kernel_size=(3, 3), stride=(1, 1), padding=(1, 1), groups=32, bias=False)
    (1): BatchNorm2d(32, eps=1e-05, momentum=0.1, affine=True, track_running_stats=True)
    (2): ReLU(inplace=True)
  )
  (1): Conv2d(32, 16, kernel_size=(1, 1), stride=(1, 1), bias=False)
  (2): BatchNorm2d(16, eps=1e-05, momentum=0.1, affine=True, track_running_stats=True)
)
Mean time: 37.438 ms
Measuring time for ConvBNReLU(
  (0): Conv2d(32, 32, kernel_size=(3, 3), stride=(1, 1), padding=(1, 1), groups=32, bias=False)
  (1): BatchNorm2d(32, eps=1e-05, momentum=0.1, affine=True, track_running_stats=True)
  (2): ReLU(inplace=True)
)
Mean time: 39.759 ms
Measuring time for Conv2d(32, 32, kernel_size=(3, 3), stride=(1, 1), padding=(1, 1), groups=32, bias=False)
Mean time: 39.711 ms
Measuring time for BatchNorm2d(32, eps=1e-05, momentum=0.1, affine=True, track_running_stats=True)
Mean time: 38.398 ms
Measuring time for ReLU(inplace=True)
Mean time: 37.223 ms
Measuring time for Conv2d(32, 16, kernel_size=(1, 1), stride=(1, 1), bias=False)
Mean time: 36.757 ms
Measuring time for BatchNorm2d(16, eps=1e-05, momentum=0.1, affine=True, track_running_stats=True)
Mean time: 36.739 ms
Measuring time for FloatFunctional(
  (activation_post_process): Identity()
)
Mean time: 37.035 ms
Measuring time for Identity()
Mean time: 38.549 ms
Measuring time for InvertedResidual(
  (conv): Sequential(
    (0): ConvBNReLU(
      (0): Conv2d(16, 96, kernel_size=(1, 1), stride=(1, 1), bias=False)
      (1): BatchNorm2d(96, eps=1e-05, momentum=0.1, affine=True, track_running_stats=True)
      (2): ReLU(inplace=True)
    )
    (1): ConvBNReLU(
      (0): Conv2d(96, 96, kernel_size=(3, 3), stride=(2, 2), padding=(1, 1), groups=96, bias=False)
      (1): BatchNorm2d(96, eps=1e-05, momentum=0.1, affine=True, track_running_stats=True)
      (2): ReLU(inplace=True)
    )
    (2): Conv2d(96, 24, kernel_size=(1, 1), stride=(1, 1), bias=False)
    (3): BatchNorm2d(24, eps=1e-05, momentum=0.1, affine=True, track_running_stats=True)
  )
  (skip_add): FloatFunctional(
    (activation_post_process): Identity()
  )
)
Mean time: 40.113 ms
Measuring time for Sequential(
  (0): ConvBNReLU(
    (0): Conv2d(16, 96, kernel_size=(1, 1), stride=(1, 1), bias=False)
    (1): BatchNorm2d(96, eps=1e-05, momentum=0.1, affine=True, track_running_stats=True)
    (2): ReLU(inplace=True)
  )
  (1): ConvBNReLU(
    (0): Conv2d(96, 96, kernel_size=(3, 3), stride=(2, 2), padding=(1, 1), groups=96, bias=False)
    (1): BatchNorm2d(96, eps=1e-05, momentum=0.1, affine=True, track_running_stats=True)
    (2): ReLU(inplace=True)
  )
  (2): Conv2d(96, 24, kernel_size=(1, 1), stride=(1, 1), bias=False)
  (3): BatchNorm2d(24, eps=1e-05, momentum=0.1, affine=True, track_running_stats=True)
)
Mean time: 40.734 ms
Measuring time for ConvBNReLU(
  (0): Conv2d(16, 96, kernel_size=(1, 1), stride=(1, 1), bias=False)
  (1): BatchNorm2d(96, eps=1e-05, momentum=0.1, affine=True, track_running_stats=True)
  (2): ReLU(inplace=True)
)
Mean time: 39.405 ms
Measuring time for Conv2d(16, 96, kernel_size=(1, 1), stride=(1, 1), bias=False)
Mean time: 40.163 ms
Measuring time for BatchNorm2d(96, eps=1e-05, momentum=0.1, affine=True, track_running_stats=True)
Mean time: 39.137 ms
Measuring time for ReLU(inplace=True)
Mean time: 38.304 ms
Measuring time for ConvBNReLU(
  (0): Conv2d(96, 96, kernel_size=(3, 3), stride=(2, 2), padding=(1, 1), groups=96, bias=False)
  (1): BatchNorm2d(96, eps=1e-05, momentum=0.1, affine=True, track_running_stats=True)
  (2): ReLU(inplace=True)
)
Mean time: 39.417 ms
Measuring time for Conv2d(96, 96, kernel_size=(3, 3), stride=(2, 2), padding=(1, 1), groups=96, bias=False)
Mean time: 39.361 ms
Measuring time for BatchNorm2d(96, eps=1e-05, momentum=0.1, affine=True, track_running_stats=True)
Mean time: 40.337 ms
Measuring time for ReLU(inplace=True)
Mean time: 39.592 ms
Measuring time for Conv2d(96, 24, kernel_size=(1, 1), stride=(1, 1), bias=False)
Mean time: 39.704 ms
Measuring time for BatchNorm2d(24, eps=1e-05, momentum=0.1, affine=True, track_running_stats=True)
Mean time: 39.768 ms
Measuring time for FloatFunctional(
  (activation_post_process): Identity()
)
Mean time: 38.296 ms
Measuring time for Identity()
Mean time: 54.739 ms
Measuring time for InvertedResidual(
  (conv): Sequential(
    (0): ConvBNReLU(
      (0): Conv2d(24, 144, kernel_size=(1, 1), stride=(1, 1), bias=False)
      (1): BatchNorm2d(144, eps=1e-05, momentum=0.1, affine=True, track_running_stats=True)
      (2): ReLU(inplace=True)
    )
    (1): ConvBNReLU(
      (0): Conv2d(144, 144, kernel_size=(3, 3), stride=(1, 1), padding=(1, 1), groups=144, bias=False)
      (1): BatchNorm2d(144, eps=1e-05, momentum=0.1, affine=True, track_running_stats=True)
      (2): ReLU(inplace=True)
    )
    (2): Conv2d(144, 24, kernel_size=(1, 1), stride=(1, 1), bias=False)
    (3): BatchNorm2d(24, eps=1e-05, momentum=0.1, affine=True, track_running_stats=True)
  )
  (skip_add): FloatFunctional(
    (activation_post_process): Identity()
  )
)
Mean time: 38.278 ms
Measuring time for Sequential(
  (0): ConvBNReLU(
    (0): Conv2d(24, 144, kernel_size=(1, 1), stride=(1, 1), bias=False)
    (1): BatchNorm2d(144, eps=1e-05, momentum=0.1, affine=True, track_running_stats=True)
    (2): ReLU(inplace=True)
  )
  (1): ConvBNReLU(
    (0): Conv2d(144, 144, kernel_size=(3, 3), stride=(1, 1), padding=(1, 1), groups=144, bias=False)
    (1): BatchNorm2d(144, eps=1e-05, momentum=0.1, affine=True, track_running_stats=True)
    (2): ReLU(inplace=True)
  )
  (2): Conv2d(144, 24, kernel_size=(1, 1), stride=(1, 1), bias=False)
  (3): BatchNorm2d(24, eps=1e-05, momentum=0.1, affine=True, track_running_stats=True)
)
Mean time: 37.053 ms
Measuring time for ConvBNReLU(
  (0): Conv2d(24, 144, kernel_size=(1, 1), stride=(1, 1), bias=False)
  (1): BatchNorm2d(144, eps=1e-05, momentum=0.1, affine=True, track_running_stats=True)
  (2): ReLU(inplace=True)
)
Mean time: 39.219 ms
Measuring time for Conv2d(24, 144, kernel_size=(1, 1), stride=(1, 1), bias=False)
Mean time: 51.695 ms
Measuring time for BatchNorm2d(144, eps=1e-05, momentum=0.1, affine=True, track_running_stats=True)
Mean time: 44.770 ms
Measuring time for ReLU(inplace=True)
Mean time: 38.526 ms
Measuring time for ConvBNReLU(
  (0): Conv2d(144, 144, kernel_size=(3, 3), stride=(1, 1), padding=(1, 1), groups=144, bias=False)
  (1): BatchNorm2d(144, eps=1e-05, momentum=0.1, affine=True, track_running_stats=True)
  (2): ReLU(inplace=True)
)
Mean time: 38.690 ms
Measuring time for Conv2d(144, 144, kernel_size=(3, 3), stride=(1, 1), padding=(1, 1), groups=144, bias=False)
Mean time: 41.499 ms
Measuring time for BatchNorm2d(144, eps=1e-05, momentum=0.1, affine=True, track_running_stats=True)
Mean time: 39.897 ms
Measuring time for ReLU(inplace=True)
Mean time: 40.118 ms
Measuring time for Conv2d(144, 24, kernel_size=(1, 1), stride=(1, 1), bias=False)
Mean time: 40.310 ms
Measuring time for BatchNorm2d(24, eps=1e-05, momentum=0.1, affine=True, track_running_stats=True)
Mean time: 40.277 ms
Measuring time for FloatFunctional(
  (activation_post_process): Identity()
)
Mean time: 40.891 ms
Measuring time for Identity()
Mean time: 40.744 ms
Measuring time for InvertedResidual(
  (conv): Sequential(
    (0): ConvBNReLU(
      (0): Conv2d(24, 144, kernel_size=(1, 1), stride=(1, 1), bias=False)
      (1): BatchNorm2d(144, eps=1e-05, momentum=0.1, affine=True, track_running_stats=True)
      (2): ReLU(inplace=True)
    )
    (1): ConvBNReLU(
      (0): Conv2d(144, 144, kernel_size=(3, 3), stride=(2, 2), padding=(1, 1), groups=144, bias=False)
      (1): BatchNorm2d(144, eps=1e-05, momentum=0.1, affine=True, track_running_stats=True)
      (2): ReLU(inplace=True)
    )
    (2): Conv2d(144, 32, kernel_size=(1, 1), stride=(1, 1), bias=False)
    (3): BatchNorm2d(32, eps=1e-05, momentum=0.1, affine=True, track_running_stats=True)
  )
  (skip_add): FloatFunctional(
    (activation_post_process): Identity()
  )
)
Mean time: 39.497 ms
Measuring time for Sequential(
  (0): ConvBNReLU(
    (0): Conv2d(24, 144, kernel_size=(1, 1), stride=(1, 1), bias=False)
    (1): BatchNorm2d(144, eps=1e-05, momentum=0.1, affine=True, track_running_stats=True)
    (2): ReLU(inplace=True)
  )
  (1): ConvBNReLU(
    (0): Conv2d(144, 144, kernel_size=(3, 3), stride=(2, 2), padding=(1, 1), groups=144, bias=False)
    (1): BatchNorm2d(144, eps=1e-05, momentum=0.1, affine=True, track_running_stats=True)
    (2): ReLU(inplace=True)
  )
  (2): Conv2d(144, 32, kernel_size=(1, 1), stride=(1, 1), bias=False)
  (3): BatchNorm2d(32, eps=1e-05, momentum=0.1, affine=True, track_running_stats=True)
)
Mean time: 39.264 ms
Measuring time for ConvBNReLU(
  (0): Conv2d(24, 144, kernel_size=(1, 1), stride=(1, 1), bias=False)
  (1): BatchNorm2d(144, eps=1e-05, momentum=0.1, affine=True, track_running_stats=True)
  (2): ReLU(inplace=True)
)
Mean time: 42.261 ms
Measuring time for Conv2d(24, 144, kernel_size=(1, 1), stride=(1, 1), bias=False)
Mean time: 41.093 ms
Measuring time for BatchNorm2d(144, eps=1e-05, momentum=0.1, affine=True, track_running_stats=True)
Mean time: 40.044 ms
Measuring time for ReLU(inplace=True)
Mean time: 41.014 ms
Measuring time for ConvBNReLU(
  (0): Conv2d(144, 144, kernel_size=(3, 3), stride=(2, 2), padding=(1, 1), groups=144, bias=False)
  (1): BatchNorm2d(144, eps=1e-05, momentum=0.1, affine=True, track_running_stats=True)
  (2): ReLU(inplace=True)
)
Mean time: 39.863 ms
Measuring time for Conv2d(144, 144, kernel_size=(3, 3), stride=(2, 2), padding=(1, 1), groups=144, bias=False)
Mean time: 39.477 ms
Measuring time for BatchNorm2d(144, eps=1e-05, momentum=0.1, affine=True, track_running_stats=True)
Mean time: 39.255 ms
Measuring time for ReLU(inplace=True)
Mean time: 38.562 ms
Measuring time for Conv2d(144, 32, kernel_size=(1, 1), stride=(1, 1), bias=False)
Mean time: 37.693 ms
Measuring time for BatchNorm2d(32, eps=1e-05, momentum=0.1, affine=True, track_running_stats=True)
Mean time: 37.784 ms
Measuring time for FloatFunctional(
  (activation_post_process): Identity()
)
Mean time: 37.687 ms
Measuring time for Identity()
Mean time: 37.635 ms
Measuring time for InvertedResidual(
  (conv): Sequential(
    (0): ConvBNReLU(
      (0): Conv2d(32, 192, kernel_size=(1, 1), stride=(1, 1), bias=False)
      (1): BatchNorm2d(192, eps=1e-05, momentum=0.1, affine=True, track_running_stats=True)
      (2): ReLU(inplace=True)
    )
    (1): ConvBNReLU(
      (0): Conv2d(192, 192, kernel_size=(3, 3), stride=(1, 1), padding=(1, 1), groups=192, bias=False)
      (1): BatchNorm2d(192, eps=1e-05, momentum=0.1, affine=True, track_running_stats=True)
      (2): ReLU(inplace=True)
    )
    (2): Conv2d(192, 32, kernel_size=(1, 1), stride=(1, 1), bias=False)
    (3): BatchNorm2d(32, eps=1e-05, momentum=0.1, affine=True, track_running_stats=True)
  )
  (skip_add): FloatFunctional(
    (activation_post_process): Identity()
  )
)
Mean time: 37.572 ms
Measuring time for Sequential(
  (0): ConvBNReLU(
    (0): Conv2d(32, 192, kernel_size=(1, 1), stride=(1, 1), bias=False)
    (1): BatchNorm2d(192, eps=1e-05, momentum=0.1, affine=True, track_running_stats=True)
    (2): ReLU(inplace=True)
  )
  (1): ConvBNReLU(
    (0): Conv2d(192, 192, kernel_size=(3, 3), stride=(1, 1), padding=(1, 1), groups=192, bias=False)
    (1): BatchNorm2d(192, eps=1e-05, momentum=0.1, affine=True, track_running_stats=True)
    (2): ReLU(inplace=True)
  )
  (2): Conv2d(192, 32, kernel_size=(1, 1), stride=(1, 1), bias=False)
  (3): BatchNorm2d(32, eps=1e-05, momentum=0.1, affine=True, track_running_stats=True)
)
Mean time: 39.194 ms
Measuring time for ConvBNReLU(
  (0): Conv2d(32, 192, kernel_size=(1, 1), stride=(1, 1), bias=False)
  (1): BatchNorm2d(192, eps=1e-05, momentum=0.1, affine=True, track_running_stats=True)
  (2): ReLU(inplace=True)
)
Mean time: 38.531 ms
Measuring time for Conv2d(32, 192, kernel_size=(1, 1), stride=(1, 1), bias=False)
Mean time: 37.693 ms
Measuring time for BatchNorm2d(192, eps=1e-05, momentum=0.1, affine=True, track_running_stats=True)
Mean time: 40.771 ms
Measuring time for ReLU(inplace=True)
Mean time: 40.484 ms
Measuring time for ConvBNReLU(
  (0): Conv2d(192, 192, kernel_size=(3, 3), stride=(1, 1), padding=(1, 1), groups=192, bias=False)
  (1): BatchNorm2d(192, eps=1e-05, momentum=0.1, affine=True, track_running_stats=True)
  (2): ReLU(inplace=True)
)
Mean time: 37.913 ms
Measuring time for Conv2d(192, 192, kernel_size=(3, 3), stride=(1, 1), padding=(1, 1), groups=192, bias=False)
Mean time: 37.374 ms
Measuring time for BatchNorm2d(192, eps=1e-05, momentum=0.1, affine=True, track_running_stats=True)
Mean time: 37.618 ms
Measuring time for ReLU(inplace=True)
Mean time: 39.286 ms
Measuring time for Conv2d(192, 32, kernel_size=(1, 1), stride=(1, 1), bias=False)
Mean time: 39.766 ms
Measuring time for BatchNorm2d(32, eps=1e-05, momentum=0.1, affine=True, track_running_stats=True)
Mean time: 39.621 ms
Measuring time for FloatFunctional(
  (activation_post_process): Identity()
)
Mean time: 43.366 ms
Measuring time for Identity()
Mean time: 40.025 ms
Measuring time for InvertedResidual(
  (conv): Sequential(
    (0): ConvBNReLU(
      (0): Conv2d(32, 192, kernel_size=(1, 1), stride=(1, 1), bias=False)
      (1): BatchNorm2d(192, eps=1e-05, momentum=0.1, affine=True, track_running_stats=True)
      (2): ReLU(inplace=True)
    )
    (1): ConvBNReLU(
      (0): Conv2d(192, 192, kernel_size=(3, 3), stride=(1, 1), padding=(1, 1), groups=192, bias=False)
      (1): BatchNorm2d(192, eps=1e-05, momentum=0.1, affine=True, track_running_stats=True)
      (2): ReLU(inplace=True)
    )
    (2): Conv2d(192, 32, kernel_size=(1, 1), stride=(1, 1), bias=False)
    (3): BatchNorm2d(32, eps=1e-05, momentum=0.1, affine=True, track_running_stats=True)
  )
  (skip_add): FloatFunctional(
    (activation_post_process): Identity()
  )
)
Mean time: 42.793 ms
Measuring time for Sequential(
  (0): ConvBNReLU(
    (0): Conv2d(32, 192, kernel_size=(1, 1), stride=(1, 1), bias=False)
    (1): BatchNorm2d(192, eps=1e-05, momentum=0.1, affine=True, track_running_stats=True)
    (2): ReLU(inplace=True)
  )
  (1): ConvBNReLU(
    (0): Conv2d(192, 192, kernel_size=(3, 3), stride=(1, 1), padding=(1, 1), groups=192, bias=False)
    (1): BatchNorm2d(192, eps=1e-05, momentum=0.1, affine=True, track_running_stats=True)
    (2): ReLU(inplace=True)
  )
  (2): Conv2d(192, 32, kernel_size=(1, 1), stride=(1, 1), bias=False)
  (3): BatchNorm2d(32, eps=1e-05, momentum=0.1, affine=True, track_running_stats=True)
)
Mean time: 38.896 ms
Measuring time for ConvBNReLU(
  (0): Conv2d(32, 192, kernel_size=(1, 1), stride=(1, 1), bias=False)
  (1): BatchNorm2d(192, eps=1e-05, momentum=0.1, affine=True, track_running_stats=True)
  (2): ReLU(inplace=True)
)
Mean time: 38.194 ms
Measuring time for Conv2d(32, 192, kernel_size=(1, 1), stride=(1, 1), bias=False)
Mean time: 38.569 ms
Measuring time for BatchNorm2d(192, eps=1e-05, momentum=0.1, affine=True, track_running_stats=True)
Mean time: 39.458 ms
Measuring time for ReLU(inplace=True)
Mean time: 40.242 ms
Measuring time for ConvBNReLU(
  (0): Conv2d(192, 192, kernel_size=(3, 3), stride=(1, 1), padding=(1, 1), groups=192, bias=False)
  (1): BatchNorm2d(192, eps=1e-05, momentum=0.1, affine=True, track_running_stats=True)
  (2): ReLU(inplace=True)
)
Mean time: 40.062 ms
Measuring time for Conv2d(192, 192, kernel_size=(3, 3), stride=(1, 1), padding=(1, 1), groups=192, bias=False)
Mean time: 39.413 ms
Measuring time for BatchNorm2d(192, eps=1e-05, momentum=0.1, affine=True, track_running_stats=True)
Mean time: 38.706 ms
Measuring time for ReLU(inplace=True)
Mean time: 37.566 ms
Measuring time for Conv2d(192, 32, kernel_size=(1, 1), stride=(1, 1), bias=False)
Mean time: 40.138 ms
Measuring time for BatchNorm2d(32, eps=1e-05, momentum=0.1, affine=True, track_running_stats=True)
Mean time: 39.771 ms
Measuring time for FloatFunctional(
  (activation_post_process): Identity()
)
Mean time: 38.341 ms
Measuring time for Identity()
Mean time: 38.742 ms
Measuring time for InvertedResidual(
  (conv): Sequential(
    (0): ConvBNReLU(
      (0): Conv2d(32, 192, kernel_size=(1, 1), stride=(1, 1), bias=False)
      (1): BatchNorm2d(192, eps=1e-05, momentum=0.1, affine=True, track_running_stats=True)
      (2): ReLU(inplace=True)
    )
    (1): ConvBNReLU(
      (0): Conv2d(192, 192, kernel_size=(3, 3), stride=(2, 2), padding=(1, 1), groups=192, bias=False)
      (1): BatchNorm2d(192, eps=1e-05, momentum=0.1, affine=True, track_running_stats=True)
      (2): ReLU(inplace=True)
    )
    (2): Conv2d(192, 64, kernel_size=(1, 1), stride=(1, 1), bias=False)
    (3): BatchNorm2d(64, eps=1e-05, momentum=0.1, affine=True, track_running_stats=True)
  )
  (skip_add): FloatFunctional(
    (activation_post_process): Identity()
  )
)
Mean time: 39.493 ms
Measuring time for Sequential(
  (0): ConvBNReLU(
    (0): Conv2d(32, 192, kernel_size=(1, 1), stride=(1, 1), bias=False)
    (1): BatchNorm2d(192, eps=1e-05, momentum=0.1, affine=True, track_running_stats=True)
    (2): ReLU(inplace=True)
  )
  (1): ConvBNReLU(
    (0): Conv2d(192, 192, kernel_size=(3, 3), stride=(2, 2), padding=(1, 1), groups=192, bias=False)
    (1): BatchNorm2d(192, eps=1e-05, momentum=0.1, affine=True, track_running_stats=True)
    (2): ReLU(inplace=True)
  )
  (2): Conv2d(192, 64, kernel_size=(1, 1), stride=(1, 1), bias=False)
  (3): BatchNorm2d(64, eps=1e-05, momentum=0.1, affine=True, track_running_stats=True)
)
Mean time: 39.558 ms
Measuring time for ConvBNReLU(
  (0): Conv2d(32, 192, kernel_size=(1, 1), stride=(1, 1), bias=False)
  (1): BatchNorm2d(192, eps=1e-05, momentum=0.1, affine=True, track_running_stats=True)
  (2): ReLU(inplace=True)
)
Mean time: 40.673 ms
Measuring time for Conv2d(32, 192, kernel_size=(1, 1), stride=(1, 1), bias=False)
Mean time: 39.566 ms
Measuring time for BatchNorm2d(192, eps=1e-05, momentum=0.1, affine=True, track_running_stats=True)
Mean time: 40.358 ms
Measuring time for ReLU(inplace=True)
Mean time: 41.915 ms
Measuring time for ConvBNReLU(
  (0): Conv2d(192, 192, kernel_size=(3, 3), stride=(2, 2), padding=(1, 1), groups=192, bias=False)
  (1): BatchNorm2d(192, eps=1e-05, momentum=0.1, affine=True, track_running_stats=True)
  (2): ReLU(inplace=True)
)
Mean time: 40.846 ms
Measuring time for Conv2d(192, 192, kernel_size=(3, 3), stride=(2, 2), padding=(1, 1), groups=192, bias=False)
Mean time: 40.279 ms
Measuring time for BatchNorm2d(192, eps=1e-05, momentum=0.1, affine=True, track_running_stats=True)
Mean time: 41.501 ms
Measuring time for ReLU(inplace=True)
Mean time: 39.569 ms
Measuring time for Conv2d(192, 64, kernel_size=(1, 1), stride=(1, 1), bias=False)
Mean time: 39.850 ms
Measuring time for BatchNorm2d(64, eps=1e-05, momentum=0.1, affine=True, track_running_stats=True)
Mean time: 39.639 ms
Measuring time for FloatFunctional(
  (activation_post_process): Identity()
)
Mean time: 42.645 ms
Measuring time for Identity()
Mean time: 41.071 ms
Measuring time for InvertedResidual(
  (conv): Sequential(
    (0): ConvBNReLU(
      (0): Conv2d(64, 384, kernel_size=(1, 1), stride=(1, 1), bias=False)
      (1): BatchNorm2d(384, eps=1e-05, momentum=0.1, affine=True, track_running_stats=True)
      (2): ReLU(inplace=True)
    )
    (1): ConvBNReLU(
      (0): Conv2d(384, 384, kernel_size=(3, 3), stride=(1, 1), padding=(1, 1), groups=384, bias=False)
      (1): BatchNorm2d(384, eps=1e-05, momentum=0.1, affine=True, track_running_stats=True)
      (2): ReLU(inplace=True)
    )
    (2): Conv2d(384, 64, kernel_size=(1, 1), stride=(1, 1), bias=False)
    (3): BatchNorm2d(64, eps=1e-05, momentum=0.1, affine=True, track_running_stats=True)
  )
  (skip_add): FloatFunctional(
    (activation_post_process): Identity()
  )
)
Mean time: 47.807 ms
Measuring time for Sequential(
  (0): ConvBNReLU(
    (0): Conv2d(64, 384, kernel_size=(1, 1), stride=(1, 1), bias=False)
    (1): BatchNorm2d(384, eps=1e-05, momentum=0.1, affine=True, track_running_stats=True)
    (2): ReLU(inplace=True)
  )
  (1): ConvBNReLU(
    (0): Conv2d(384, 384, kernel_size=(3, 3), stride=(1, 1), padding=(1, 1), groups=384, bias=False)
    (1): BatchNorm2d(384, eps=1e-05, momentum=0.1, affine=True, track_running_stats=True)
    (2): ReLU(inplace=True)
  )
  (2): Conv2d(384, 64, kernel_size=(1, 1), stride=(1, 1), bias=False)
  (3): BatchNorm2d(64, eps=1e-05, momentum=0.1, affine=True, track_running_stats=True)
)
Mean time: 42.585 ms
Measuring time for ConvBNReLU(
  (0): Conv2d(64, 384, kernel_size=(1, 1), stride=(1, 1), bias=False)
  (1): BatchNorm2d(384, eps=1e-05, momentum=0.1, affine=True, track_running_stats=True)
  (2): ReLU(inplace=True)
)
Mean time: 48.244 ms
Measuring time for Conv2d(64, 384, kernel_size=(1, 1), stride=(1, 1), bias=False)
Mean time: 42.707 ms
Measuring time for BatchNorm2d(384, eps=1e-05, momentum=0.1, affine=True, track_running_stats=True)
Mean time: 41.731 ms
Measuring time for ReLU(inplace=True)
Mean time: 38.994 ms
Measuring time for ConvBNReLU(
  (0): Conv2d(384, 384, kernel_size=(3, 3), stride=(1, 1), padding=(1, 1), groups=384, bias=False)
  (1): BatchNorm2d(384, eps=1e-05, momentum=0.1, affine=True, track_running_stats=True)
  (2): ReLU(inplace=True)
)
Mean time: 38.948 ms
Measuring time for Conv2d(384, 384, kernel_size=(3, 3), stride=(1, 1), padding=(1, 1), groups=384, bias=False)
Mean time: 39.422 ms
Measuring time for BatchNorm2d(384, eps=1e-05, momentum=0.1, affine=True, track_running_stats=True)
Mean time: 40.747 ms
Measuring time for ReLU(inplace=True)
Mean time: 39.337 ms
Measuring time for Conv2d(384, 64, kernel_size=(1, 1), stride=(1, 1), bias=False)
Mean time: 39.405 ms
Measuring time for BatchNorm2d(64, eps=1e-05, momentum=0.1, affine=True, track_running_stats=True)
Mean time: 40.480 ms
Measuring time for FloatFunctional(
  (activation_post_process): Identity()
)
Mean time: 40.554 ms
Measuring time for Identity()
Mean time: 40.317 ms
Measuring time for InvertedResidual(
  (conv): Sequential(
    (0): ConvBNReLU(
      (0): Conv2d(64, 384, kernel_size=(1, 1), stride=(1, 1), bias=False)
      (1): BatchNorm2d(384, eps=1e-05, momentum=0.1, affine=True, track_running_stats=True)
      (2): ReLU(inplace=True)
    )
    (1): ConvBNReLU(
      (0): Conv2d(384, 384, kernel_size=(3, 3), stride=(1, 1), padding=(1, 1), groups=384, bias=False)
      (1): BatchNorm2d(384, eps=1e-05, momentum=0.1, affine=True, track_running_stats=True)
      (2): ReLU(inplace=True)
    )
    (2): Conv2d(384, 64, kernel_size=(1, 1), stride=(1, 1), bias=False)
    (3): BatchNorm2d(64, eps=1e-05, momentum=0.1, affine=True, track_running_stats=True)
  )
  (skip_add): FloatFunctional(
    (activation_post_process): Identity()
  )
)
Mean time: 40.581 ms
Measuring time for Sequential(
  (0): ConvBNReLU(
    (0): Conv2d(64, 384, kernel_size=(1, 1), stride=(1, 1), bias=False)
    (1): BatchNorm2d(384, eps=1e-05, momentum=0.1, affine=True, track_running_stats=True)
    (2): ReLU(inplace=True)
  )
  (1): ConvBNReLU(
    (0): Conv2d(384, 384, kernel_size=(3, 3), stride=(1, 1), padding=(1, 1), groups=384, bias=False)
    (1): BatchNorm2d(384, eps=1e-05, momentum=0.1, affine=True, track_running_stats=True)
    (2): ReLU(inplace=True)
  )
  (2): Conv2d(384, 64, kernel_size=(1, 1), stride=(1, 1), bias=False)
  (3): BatchNorm2d(64, eps=1e-05, momentum=0.1, affine=True, track_running_stats=True)
)
Mean time: 39.970 ms
Measuring time for ConvBNReLU(
  (0): Conv2d(64, 384, kernel_size=(1, 1), stride=(1, 1), bias=False)
  (1): BatchNorm2d(384, eps=1e-05, momentum=0.1, affine=True, track_running_stats=True)
  (2): ReLU(inplace=True)
)
Mean time: 41.947 ms
Measuring time for Conv2d(64, 384, kernel_size=(1, 1), stride=(1, 1), bias=False)
Mean time: 40.312 ms
Measuring time for BatchNorm2d(384, eps=1e-05, momentum=0.1, affine=True, track_running_stats=True)
Mean time: 42.403 ms
Measuring time for ReLU(inplace=True)
Mean time: 40.065 ms
Measuring time for ConvBNReLU(
  (0): Conv2d(384, 384, kernel_size=(3, 3), stride=(1, 1), padding=(1, 1), groups=384, bias=False)
  (1): BatchNorm2d(384, eps=1e-05, momentum=0.1, affine=True, track_running_stats=True)
  (2): ReLU(inplace=True)
)
Mean time: 39.506 ms
Measuring time for Conv2d(384, 384, kernel_size=(3, 3), stride=(1, 1), padding=(1, 1), groups=384, bias=False)
Mean time: 39.705 ms
Measuring time for BatchNorm2d(384, eps=1e-05, momentum=0.1, affine=True, track_running_stats=True)
Mean time: 39.549 ms
Measuring time for ReLU(inplace=True)
Mean time: 40.345 ms
Measuring time for Conv2d(384, 64, kernel_size=(1, 1), stride=(1, 1), bias=False)
Mean time: 39.579 ms
Measuring time for BatchNorm2d(64, eps=1e-05, momentum=0.1, affine=True, track_running_stats=True)
Mean time: 39.718 ms
Measuring time for FloatFunctional(
  (activation_post_process): Identity()
)
Mean time: 39.447 ms
Measuring time for Identity()
Mean time: 40.218 ms
Measuring time for InvertedResidual(
  (conv): Sequential(
    (0): ConvBNReLU(
      (0): Conv2d(64, 384, kernel_size=(1, 1), stride=(1, 1), bias=False)
      (1): BatchNorm2d(384, eps=1e-05, momentum=0.1, affine=True, track_running_stats=True)
      (2): ReLU(inplace=True)
    )
    (1): ConvBNReLU(
      (0): Conv2d(384, 384, kernel_size=(3, 3), stride=(1, 1), padding=(1, 1), groups=384, bias=False)
      (1): BatchNorm2d(384, eps=1e-05, momentum=0.1, affine=True, track_running_stats=True)
      (2): ReLU(inplace=True)
    )
    (2): Conv2d(384, 64, kernel_size=(1, 1), stride=(1, 1), bias=False)
    (3): BatchNorm2d(64, eps=1e-05, momentum=0.1, affine=True, track_running_stats=True)
  )
  (skip_add): FloatFunctional(
    (activation_post_process): Identity()
  )
)
Mean time: 40.156 ms
Measuring time for Sequential(
  (0): ConvBNReLU(
    (0): Conv2d(64, 384, kernel_size=(1, 1), stride=(1, 1), bias=False)
    (1): BatchNorm2d(384, eps=1e-05, momentum=0.1, affine=True, track_running_stats=True)
    (2): ReLU(inplace=True)
  )
  (1): ConvBNReLU(
    (0): Conv2d(384, 384, kernel_size=(3, 3), stride=(1, 1), padding=(1, 1), groups=384, bias=False)
    (1): BatchNorm2d(384, eps=1e-05, momentum=0.1, affine=True, track_running_stats=True)
    (2): ReLU(inplace=True)
  )
  (2): Conv2d(384, 64, kernel_size=(1, 1), stride=(1, 1), bias=False)
  (3): BatchNorm2d(64, eps=1e-05, momentum=0.1, affine=True, track_running_stats=True)
)
Mean time: 37.896 ms
Measuring time for ConvBNReLU(
  (0): Conv2d(64, 384, kernel_size=(1, 1), stride=(1, 1), bias=False)
  (1): BatchNorm2d(384, eps=1e-05, momentum=0.1, affine=True, track_running_stats=True)
  (2): ReLU(inplace=True)
)
Mean time: 37.478 ms
Measuring time for Conv2d(64, 384, kernel_size=(1, 1), stride=(1, 1), bias=False)
Mean time: 37.669 ms
Measuring time for BatchNorm2d(384, eps=1e-05, momentum=0.1, affine=True, track_running_stats=True)
Mean time: 39.925 ms
Measuring time for ReLU(inplace=True)
Mean time: 40.102 ms
Measuring time for ConvBNReLU(
  (0): Conv2d(384, 384, kernel_size=(3, 3), stride=(1, 1), padding=(1, 1), groups=384, bias=False)
  (1): BatchNorm2d(384, eps=1e-05, momentum=0.1, affine=True, track_running_stats=True)
  (2): ReLU(inplace=True)
)
Mean time: 46.023 ms
Measuring time for Conv2d(384, 384, kernel_size=(3, 3), stride=(1, 1), padding=(1, 1), groups=384, bias=False)
Mean time: 43.176 ms
Measuring time for BatchNorm2d(384, eps=1e-05, momentum=0.1, affine=True, track_running_stats=True)
Mean time: 40.506 ms
Measuring time for ReLU(inplace=True)
Mean time: 43.903 ms
Measuring time for Conv2d(384, 64, kernel_size=(1, 1), stride=(1, 1), bias=False)
Mean time: 41.184 ms
Measuring time for BatchNorm2d(64, eps=1e-05, momentum=0.1, affine=True, track_running_stats=True)
Mean time: 41.523 ms
Measuring time for FloatFunctional(
  (activation_post_process): Identity()
)
Mean time: 40.857 ms
Measuring time for Identity()
Mean time: 43.131 ms
Measuring time for InvertedResidual(
  (conv): Sequential(
    (0): ConvBNReLU(
      (0): Conv2d(64, 384, kernel_size=(1, 1), stride=(1, 1), bias=False)
      (1): BatchNorm2d(384, eps=1e-05, momentum=0.1, affine=True, track_running_stats=True)
      (2): ReLU(inplace=True)
    )
    (1): ConvBNReLU(
      (0): Conv2d(384, 384, kernel_size=(3, 3), stride=(1, 1), padding=(1, 1), groups=384, bias=False)
      (1): BatchNorm2d(384, eps=1e-05, momentum=0.1, affine=True, track_running_stats=True)
      (2): ReLU(inplace=True)
    )
    (2): Conv2d(384, 96, kernel_size=(1, 1), stride=(1, 1), bias=False)
    (3): BatchNorm2d(96, eps=1e-05, momentum=0.1, affine=True, track_running_stats=True)
  )
  (skip_add): FloatFunctional(
    (activation_post_process): Identity()
  )
)
Mean time: 42.164 ms
Measuring time for Sequential(
  (0): ConvBNReLU(
    (0): Conv2d(64, 384, kernel_size=(1, 1), stride=(1, 1), bias=False)
    (1): BatchNorm2d(384, eps=1e-05, momentum=0.1, affine=True, track_running_stats=True)
    (2): ReLU(inplace=True)
  )
  (1): ConvBNReLU(
    (0): Conv2d(384, 384, kernel_size=(3, 3), stride=(1, 1), padding=(1, 1), groups=384, bias=False)
    (1): BatchNorm2d(384, eps=1e-05, momentum=0.1, affine=True, track_running_stats=True)
    (2): ReLU(inplace=True)
  )
  (2): Conv2d(384, 96, kernel_size=(1, 1), stride=(1, 1), bias=False)
  (3): BatchNorm2d(96, eps=1e-05, momentum=0.1, affine=True, track_running_stats=True)
)
Mean time: 42.210 ms
Measuring time for ConvBNReLU(
  (0): Conv2d(64, 384, kernel_size=(1, 1), stride=(1, 1), bias=False)
  (1): BatchNorm2d(384, eps=1e-05, momentum=0.1, affine=True, track_running_stats=True)
  (2): ReLU(inplace=True)
)
Mean time: 41.422 ms
Measuring time for Conv2d(64, 384, kernel_size=(1, 1), stride=(1, 1), bias=False)
Mean time: 38.505 ms
Measuring time for BatchNorm2d(384, eps=1e-05, momentum=0.1, affine=True, track_running_stats=True)
Mean time: 37.945 ms
Measuring time for ReLU(inplace=True)
Mean time: 37.773 ms
Measuring time for ConvBNReLU(
  (0): Conv2d(384, 384, kernel_size=(3, 3), stride=(1, 1), padding=(1, 1), groups=384, bias=False)
  (1): BatchNorm2d(384, eps=1e-05, momentum=0.1, affine=True, track_running_stats=True)
  (2): ReLU(inplace=True)
)
Mean time: 38.252 ms
Measuring time for Conv2d(384, 384, kernel_size=(3, 3), stride=(1, 1), padding=(1, 1), groups=384, bias=False)
Mean time: 38.237 ms
Measuring time for BatchNorm2d(384, eps=1e-05, momentum=0.1, affine=True, track_running_stats=True)
Mean time: 42.202 ms
Measuring time for ReLU(inplace=True)
Mean time: 38.332 ms
Measuring time for Conv2d(384, 96, kernel_size=(1, 1), stride=(1, 1), bias=False)
Mean time: 38.467 ms
Measuring time for BatchNorm2d(96, eps=1e-05, momentum=0.1, affine=True, track_running_stats=True)
Mean time: 39.259 ms
Measuring time for FloatFunctional(
  (activation_post_process): Identity()
)
Mean time: 40.035 ms
Measuring time for Identity()
Mean time: 39.900 ms
Measuring time for InvertedResidual(
  (conv): Sequential(
    (0): ConvBNReLU(
      (0): Conv2d(96, 576, kernel_size=(1, 1), stride=(1, 1), bias=False)
      (1): BatchNorm2d(576, eps=1e-05, momentum=0.1, affine=True, track_running_stats=True)
      (2): ReLU(inplace=True)
    )
    (1): ConvBNReLU(
      (0): Conv2d(576, 576, kernel_size=(3, 3), stride=(1, 1), padding=(1, 1), groups=576, bias=False)
      (1): BatchNorm2d(576, eps=1e-05, momentum=0.1, affine=True, track_running_stats=True)
      (2): ReLU(inplace=True)
    )
    (2): Conv2d(576, 96, kernel_size=(1, 1), stride=(1, 1), bias=False)
    (3): BatchNorm2d(96, eps=1e-05, momentum=0.1, affine=True, track_running_stats=True)
  )
  (skip_add): FloatFunctional(
    (activation_post_process): Identity()
  )
)
Mean time: 39.742 ms
Measuring time for Sequential(
  (0): ConvBNReLU(
    (0): Conv2d(96, 576, kernel_size=(1, 1), stride=(1, 1), bias=False)
    (1): BatchNorm2d(576, eps=1e-05, momentum=0.1, affine=True, track_running_stats=True)
    (2): ReLU(inplace=True)
  )
  (1): ConvBNReLU(
    (0): Conv2d(576, 576, kernel_size=(3, 3), stride=(1, 1), padding=(1, 1), groups=576, bias=False)
    (1): BatchNorm2d(576, eps=1e-05, momentum=0.1, affine=True, track_running_stats=True)
    (2): ReLU(inplace=True)
  )
  (2): Conv2d(576, 96, kernel_size=(1, 1), stride=(1, 1), bias=False)
  (3): BatchNorm2d(96, eps=1e-05, momentum=0.1, affine=True, track_running_stats=True)
)
Mean time: 39.570 ms
Measuring time for ConvBNReLU(
  (0): Conv2d(96, 576, kernel_size=(1, 1), stride=(1, 1), bias=False)
  (1): BatchNorm2d(576, eps=1e-05, momentum=0.1, affine=True, track_running_stats=True)
  (2): ReLU(inplace=True)
)
Mean time: 40.469 ms
Measuring time for Conv2d(96, 576, kernel_size=(1, 1), stride=(1, 1), bias=False)
Mean time: 42.043 ms
Measuring time for BatchNorm2d(576, eps=1e-05, momentum=0.1, affine=True, track_running_stats=True)
Mean time: 56.505 ms
Measuring time for ReLU(inplace=True)
Mean time: 47.350 ms
Measuring time for ConvBNReLU(
  (0): Conv2d(576, 576, kernel_size=(3, 3), stride=(1, 1), padding=(1, 1), groups=576, bias=False)
  (1): BatchNorm2d(576, eps=1e-05, momentum=0.1, affine=True, track_running_stats=True)
  (2): ReLU(inplace=True)
)
Mean time: 41.985 ms
Measuring time for Conv2d(576, 576, kernel_size=(3, 3), stride=(1, 1), padding=(1, 1), groups=576, bias=False)
Mean time: 40.062 ms
Measuring time for BatchNorm2d(576, eps=1e-05, momentum=0.1, affine=True, track_running_stats=True)
Mean time: 39.745 ms
Measuring time for ReLU(inplace=True)
Mean time: 38.872 ms
Measuring time for Conv2d(576, 96, kernel_size=(1, 1), stride=(1, 1), bias=False)
Mean time: 43.330 ms
Measuring time for BatchNorm2d(96, eps=1e-05, momentum=0.1, affine=True, track_running_stats=True)
Mean time: 48.397 ms
Measuring time for FloatFunctional(
  (activation_post_process): Identity()
)
Mean time: 45.775 ms
Measuring time for Identity()
Mean time: 41.081 ms
Measuring time for InvertedResidual(
  (conv): Sequential(
    (0): ConvBNReLU(
      (0): Conv2d(96, 576, kernel_size=(1, 1), stride=(1, 1), bias=False)
      (1): BatchNorm2d(576, eps=1e-05, momentum=0.1, affine=True, track_running_stats=True)
      (2): ReLU(inplace=True)
    )
    (1): ConvBNReLU(
      (0): Conv2d(576, 576, kernel_size=(3, 3), stride=(1, 1), padding=(1, 1), groups=576, bias=False)
      (1): BatchNorm2d(576, eps=1e-05, momentum=0.1, affine=True, track_running_stats=True)
      (2): ReLU(inplace=True)
    )
    (2): Conv2d(576, 96, kernel_size=(1, 1), stride=(1, 1), bias=False)
    (3): BatchNorm2d(96, eps=1e-05, momentum=0.1, affine=True, track_running_stats=True)
  )
  (skip_add): FloatFunctional(
    (activation_post_process): Identity()
  )
)
Mean time: 47.204 ms
Measuring time for Sequential(
  (0): ConvBNReLU(
    (0): Conv2d(96, 576, kernel_size=(1, 1), stride=(1, 1), bias=False)
    (1): BatchNorm2d(576, eps=1e-05, momentum=0.1, affine=True, track_running_stats=True)
    (2): ReLU(inplace=True)
  )
  (1): ConvBNReLU(
    (0): Conv2d(576, 576, kernel_size=(3, 3), stride=(1, 1), padding=(1, 1), groups=576, bias=False)
    (1): BatchNorm2d(576, eps=1e-05, momentum=0.1, affine=True, track_running_stats=True)
    (2): ReLU(inplace=True)
  )
  (2): Conv2d(576, 96, kernel_size=(1, 1), stride=(1, 1), bias=False)
  (3): BatchNorm2d(96, eps=1e-05, momentum=0.1, affine=True, track_running_stats=True)
)
Mean time: 44.983 ms
Measuring time for ConvBNReLU(
  (0): Conv2d(96, 576, kernel_size=(1, 1), stride=(1, 1), bias=False)
  (1): BatchNorm2d(576, eps=1e-05, momentum=0.1, affine=True, track_running_stats=True)
  (2): ReLU(inplace=True)
)
Mean time: 41.428 ms
Measuring time for Conv2d(96, 576, kernel_size=(1, 1), stride=(1, 1), bias=False)
Mean time: 44.092 ms
Measuring time for BatchNorm2d(576, eps=1e-05, momentum=0.1, affine=True, track_running_stats=True)
Mean time: 45.034 ms
Measuring time for ReLU(inplace=True)
Mean time: 39.497 ms
Measuring time for ConvBNReLU(
  (0): Conv2d(576, 576, kernel_size=(3, 3), stride=(1, 1), padding=(1, 1), groups=576, bias=False)
  (1): BatchNorm2d(576, eps=1e-05, momentum=0.1, affine=True, track_running_stats=True)
  (2): ReLU(inplace=True)
)
Mean time: 37.928 ms
Measuring time for Conv2d(576, 576, kernel_size=(3, 3), stride=(1, 1), padding=(1, 1), groups=576, bias=False)
Mean time: 41.126 ms
Measuring time for BatchNorm2d(576, eps=1e-05, momentum=0.1, affine=True, track_running_stats=True)
Mean time: 42.201 ms
Measuring time for ReLU(inplace=True)
Mean time: 44.055 ms
Measuring time for Conv2d(576, 96, kernel_size=(1, 1), stride=(1, 1), bias=False)
Mean time: 38.464 ms
Measuring time for BatchNorm2d(96, eps=1e-05, momentum=0.1, affine=True, track_running_stats=True)
Mean time: 45.713 ms
Measuring time for FloatFunctional(
  (activation_post_process): Identity()
)
Mean time: 50.749 ms
Measuring time for Identity()
Mean time: 38.817 ms
Measuring time for InvertedResidual(
  (conv): Sequential(
    (0): ConvBNReLU(
      (0): Conv2d(96, 576, kernel_size=(1, 1), stride=(1, 1), bias=False)
      (1): BatchNorm2d(576, eps=1e-05, momentum=0.1, affine=True, track_running_stats=True)
      (2): ReLU(inplace=True)
    )
    (1): ConvBNReLU(
      (0): Conv2d(576, 576, kernel_size=(3, 3), stride=(2, 2), padding=(1, 1), groups=576, bias=False)
      (1): BatchNorm2d(576, eps=1e-05, momentum=0.1, affine=True, track_running_stats=True)
      (2): ReLU(inplace=True)
    )
    (2): Conv2d(576, 160, kernel_size=(1, 1), stride=(1, 1), bias=False)
    (3): BatchNorm2d(160, eps=1e-05, momentum=0.1, affine=True, track_running_stats=True)
  )
  (skip_add): FloatFunctional(
    (activation_post_process): Identity()
  )
)
Mean time: 41.878 ms
Measuring time for Sequential(
  (0): ConvBNReLU(
    (0): Conv2d(96, 576, kernel_size=(1, 1), stride=(1, 1), bias=False)
    (1): BatchNorm2d(576, eps=1e-05, momentum=0.1, affine=True, track_running_stats=True)
    (2): ReLU(inplace=True)
  )
  (1): ConvBNReLU(
    (0): Conv2d(576, 576, kernel_size=(3, 3), stride=(2, 2), padding=(1, 1), groups=576, bias=False)
    (1): BatchNorm2d(576, eps=1e-05, momentum=0.1, affine=True, track_running_stats=True)
    (2): ReLU(inplace=True)
  )
  (2): Conv2d(576, 160, kernel_size=(1, 1), stride=(1, 1), bias=False)
  (3): BatchNorm2d(160, eps=1e-05, momentum=0.1, affine=True, track_running_stats=True)
)
Mean time: 43.587 ms
Measuring time for ConvBNReLU(
  (0): Conv2d(96, 576, kernel_size=(1, 1), stride=(1, 1), bias=False)
  (1): BatchNorm2d(576, eps=1e-05, momentum=0.1, affine=True, track_running_stats=True)
  (2): ReLU(inplace=True)
)
Mean time: 44.751 ms
Measuring time for Conv2d(96, 576, kernel_size=(1, 1), stride=(1, 1), bias=False)
Mean time: 41.976 ms
Measuring time for BatchNorm2d(576, eps=1e-05, momentum=0.1, affine=True, track_running_stats=True)
Mean time: 43.960 ms
Measuring time for ReLU(inplace=True)
Mean time: 40.794 ms
Measuring time for ConvBNReLU(
  (0): Conv2d(576, 576, kernel_size=(3, 3), stride=(2, 2), padding=(1, 1), groups=576, bias=False)
  (1): BatchNorm2d(576, eps=1e-05, momentum=0.1, affine=True, track_running_stats=True)
  (2): ReLU(inplace=True)
)
Mean time: 44.550 ms
Measuring time for Conv2d(576, 576, kernel_size=(3, 3), stride=(2, 2), padding=(1, 1), groups=576, bias=False)
Mean time: 40.104 ms
Measuring time for BatchNorm2d(576, eps=1e-05, momentum=0.1, affine=True, track_running_stats=True)
Mean time: 40.950 ms
Measuring time for ReLU(inplace=True)
Mean time: 39.905 ms
Measuring time for Conv2d(576, 160, kernel_size=(1, 1), stride=(1, 1), bias=False)
Mean time: 38.309 ms
Measuring time for BatchNorm2d(160, eps=1e-05, momentum=0.1, affine=True, track_running_stats=True)
Mean time: 37.557 ms
Measuring time for FloatFunctional(
  (activation_post_process): Identity()
)
Mean time: 37.798 ms
Measuring time for Identity()
Mean time: 37.745 ms
Measuring time for InvertedResidual(
  (conv): Sequential(
    (0): ConvBNReLU(
      (0): Conv2d(160, 960, kernel_size=(1, 1), stride=(1, 1), bias=False)
      (1): BatchNorm2d(960, eps=1e-05, momentum=0.1, affine=True, track_running_stats=True)
      (2): ReLU(inplace=True)
    )
    (1): ConvBNReLU(
      (0): Conv2d(960, 960, kernel_size=(3, 3), stride=(1, 1), padding=(1, 1), groups=960, bias=False)
      (1): BatchNorm2d(960, eps=1e-05, momentum=0.1, affine=True, track_running_stats=True)
      (2): ReLU(inplace=True)
    )
    (2): Conv2d(960, 160, kernel_size=(1, 1), stride=(1, 1), bias=False)
    (3): BatchNorm2d(160, eps=1e-05, momentum=0.1, affine=True, track_running_stats=True)
  )
  (skip_add): FloatFunctional(
    (activation_post_process): Identity()
  )
)
Mean time: 38.737 ms
Measuring time for Sequential(
  (0): ConvBNReLU(
    (0): Conv2d(160, 960, kernel_size=(1, 1), stride=(1, 1), bias=False)
    (1): BatchNorm2d(960, eps=1e-05, momentum=0.1, affine=True, track_running_stats=True)
    (2): ReLU(inplace=True)
  )
  (1): ConvBNReLU(
    (0): Conv2d(960, 960, kernel_size=(3, 3), stride=(1, 1), padding=(1, 1), groups=960, bias=False)
    (1): BatchNorm2d(960, eps=1e-05, momentum=0.1, affine=True, track_running_stats=True)
    (2): ReLU(inplace=True)
  )
  (2): Conv2d(960, 160, kernel_size=(1, 1), stride=(1, 1), bias=False)
  (3): BatchNorm2d(160, eps=1e-05, momentum=0.1, affine=True, track_running_stats=True)
)
Mean time: 38.155 ms
Measuring time for ConvBNReLU(
  (0): Conv2d(160, 960, kernel_size=(1, 1), stride=(1, 1), bias=False)
  (1): BatchNorm2d(960, eps=1e-05, momentum=0.1, affine=True, track_running_stats=True)
  (2): ReLU(inplace=True)
)
Mean time: 37.651 ms
Measuring time for Conv2d(160, 960, kernel_size=(1, 1), stride=(1, 1), bias=False)
Mean time: 37.690 ms
Measuring time for BatchNorm2d(960, eps=1e-05, momentum=0.1, affine=True, track_running_stats=True)
Mean time: 39.089 ms
Measuring time for ReLU(inplace=True)
Mean time: 42.309 ms
Measuring time for ConvBNReLU(
  (0): Conv2d(960, 960, kernel_size=(3, 3), stride=(1, 1), padding=(1, 1), groups=960, bias=False)
  (1): BatchNorm2d(960, eps=1e-05, momentum=0.1, affine=True, track_running_stats=True)
  (2): ReLU(inplace=True)
)
Mean time: 39.001 ms
Measuring time for Conv2d(960, 960, kernel_size=(3, 3), stride=(1, 1), padding=(1, 1), groups=960, bias=False)
Mean time: 39.307 ms
Measuring time for BatchNorm2d(960, eps=1e-05, momentum=0.1, affine=True, track_running_stats=True)
Mean time: 40.781 ms
Measuring time for ReLU(inplace=True)
Mean time: 39.556 ms
Measuring time for Conv2d(960, 160, kernel_size=(1, 1), stride=(1, 1), bias=False)
Mean time: 40.347 ms
Measuring time for BatchNorm2d(160, eps=1e-05, momentum=0.1, affine=True, track_running_stats=True)
Mean time: 39.300 ms
Measuring time for FloatFunctional(
  (activation_post_process): Identity()
)
Mean time: 39.004 ms
Measuring time for Identity()
Mean time: 39.290 ms
Measuring time for InvertedResidual(
  (conv): Sequential(
    (0): ConvBNReLU(
      (0): Conv2d(160, 960, kernel_size=(1, 1), stride=(1, 1), bias=False)
      (1): BatchNorm2d(960, eps=1e-05, momentum=0.1, affine=True, track_running_stats=True)
      (2): ReLU(inplace=True)
    )
    (1): ConvBNReLU(
      (0): Conv2d(960, 960, kernel_size=(3, 3), stride=(1, 1), padding=(1, 1), groups=960, bias=False)
      (1): BatchNorm2d(960, eps=1e-05, momentum=0.1, affine=True, track_running_stats=True)
      (2): ReLU(inplace=True)
    )
    (2): Conv2d(960, 160, kernel_size=(1, 1), stride=(1, 1), bias=False)
    (3): BatchNorm2d(160, eps=1e-05, momentum=0.1, affine=True, track_running_stats=True)
  )
  (skip_add): FloatFunctional(
    (activation_post_process): Identity()
  )
)
Mean time: 41.004 ms
Measuring time for Sequential(
  (0): ConvBNReLU(
    (0): Conv2d(160, 960, kernel_size=(1, 1), stride=(1, 1), bias=False)
    (1): BatchNorm2d(960, eps=1e-05, momentum=0.1, affine=True, track_running_stats=True)
    (2): ReLU(inplace=True)
  )
  (1): ConvBNReLU(
    (0): Conv2d(960, 960, kernel_size=(3, 3), stride=(1, 1), padding=(1, 1), groups=960, bias=False)
    (1): BatchNorm2d(960, eps=1e-05, momentum=0.1, affine=True, track_running_stats=True)
    (2): ReLU(inplace=True)
  )
  (2): Conv2d(960, 160, kernel_size=(1, 1), stride=(1, 1), bias=False)
  (3): BatchNorm2d(160, eps=1e-05, momentum=0.1, affine=True, track_running_stats=True)
)
Mean time: 38.635 ms
Measuring time for ConvBNReLU(
  (0): Conv2d(160, 960, kernel_size=(1, 1), stride=(1, 1), bias=False)
  (1): BatchNorm2d(960, eps=1e-05, momentum=0.1, affine=True, track_running_stats=True)
  (2): ReLU(inplace=True)
)
Mean time: 40.426 ms
Measuring time for Conv2d(160, 960, kernel_size=(1, 1), stride=(1, 1), bias=False)
Mean time: 39.816 ms
Measuring time for BatchNorm2d(960, eps=1e-05, momentum=0.1, affine=True, track_running_stats=True)
Mean time: 40.056 ms
Measuring time for ReLU(inplace=True)
Mean time: 40.939 ms
Measuring time for ConvBNReLU(
  (0): Conv2d(960, 960, kernel_size=(3, 3), stride=(1, 1), padding=(1, 1), groups=960, bias=False)
  (1): BatchNorm2d(960, eps=1e-05, momentum=0.1, affine=True, track_running_stats=True)
  (2): ReLU(inplace=True)
)
Mean time: 40.401 ms
Measuring time for Conv2d(960, 960, kernel_size=(3, 3), stride=(1, 1), padding=(1, 1), groups=960, bias=False)
Mean time: 39.910 ms
Measuring time for BatchNorm2d(960, eps=1e-05, momentum=0.1, affine=True, track_running_stats=True)
Mean time: 40.508 ms
Measuring time for ReLU(inplace=True)
Mean time: 40.338 ms
Measuring time for Conv2d(960, 160, kernel_size=(1, 1), stride=(1, 1), bias=False)
Mean time: 40.838 ms
Measuring time for BatchNorm2d(160, eps=1e-05, momentum=0.1, affine=True, track_running_stats=True)
Mean time: 40.879 ms
Measuring time for FloatFunctional(
  (activation_post_process): Identity()
)
Mean time: 40.222 ms
Measuring time for Identity()
Mean time: 39.868 ms
Measuring time for InvertedResidual(
  (conv): Sequential(
    (0): ConvBNReLU(
      (0): Conv2d(160, 960, kernel_size=(1, 1), stride=(1, 1), bias=False)
      (1): BatchNorm2d(960, eps=1e-05, momentum=0.1, affine=True, track_running_stats=True)
      (2): ReLU(inplace=True)
    )
    (1): ConvBNReLU(
      (0): Conv2d(960, 960, kernel_size=(3, 3), stride=(1, 1), padding=(1, 1), groups=960, bias=False)
      (1): BatchNorm2d(960, eps=1e-05, momentum=0.1, affine=True, track_running_stats=True)
      (2): ReLU(inplace=True)
    )
    (2): Conv2d(960, 320, kernel_size=(1, 1), stride=(1, 1), bias=False)
    (3): BatchNorm2d(320, eps=1e-05, momentum=0.1, affine=True, track_running_stats=True)
  )
  (skip_add): FloatFunctional(
    (activation_post_process): Identity()
  )
)
Mean time: 40.896 ms
Measuring time for Sequential(
  (0): ConvBNReLU(
    (0): Conv2d(160, 960, kernel_size=(1, 1), stride=(1, 1), bias=False)
    (1): BatchNorm2d(960, eps=1e-05, momentum=0.1, affine=True, track_running_stats=True)
    (2): ReLU(inplace=True)
  )
  (1): ConvBNReLU(
    (0): Conv2d(960, 960, kernel_size=(3, 3), stride=(1, 1), padding=(1, 1), groups=960, bias=False)
    (1): BatchNorm2d(960, eps=1e-05, momentum=0.1, affine=True, track_running_stats=True)
    (2): ReLU(inplace=True)
  )
  (2): Conv2d(960, 320, kernel_size=(1, 1), stride=(1, 1), bias=False)
  (3): BatchNorm2d(320, eps=1e-05, momentum=0.1, affine=True, track_running_stats=True)
)
Mean time: 44.910 ms
Measuring time for ConvBNReLU(
  (0): Conv2d(160, 960, kernel_size=(1, 1), stride=(1, 1), bias=False)
  (1): BatchNorm2d(960, eps=1e-05, momentum=0.1, affine=True, track_running_stats=True)
  (2): ReLU(inplace=True)
)
Mean time: 47.657 ms
Measuring time for Conv2d(160, 960, kernel_size=(1, 1), stride=(1, 1), bias=False)
Mean time: 42.160 ms
Measuring time for BatchNorm2d(960, eps=1e-05, momentum=0.1, affine=True, track_running_stats=True)
Mean time: 44.477 ms
Measuring time for ReLU(inplace=True)
Mean time: 43.820 ms
Measuring time for ConvBNReLU(
  (0): Conv2d(960, 960, kernel_size=(3, 3), stride=(1, 1), padding=(1, 1), groups=960, bias=False)
  (1): BatchNorm2d(960, eps=1e-05, momentum=0.1, affine=True, track_running_stats=True)
  (2): ReLU(inplace=True)
)
Mean time: 40.199 ms
Measuring time for Conv2d(960, 960, kernel_size=(3, 3), stride=(1, 1), padding=(1, 1), groups=960, bias=False)
Mean time: 38.923 ms
Measuring time for BatchNorm2d(960, eps=1e-05, momentum=0.1, affine=True, track_running_stats=True)
Mean time: 39.763 ms
Measuring time for ReLU(inplace=True)
Mean time: 38.491 ms
Measuring time for Conv2d(960, 320, kernel_size=(1, 1), stride=(1, 1), bias=False)
Mean time: 39.355 ms
Measuring time for BatchNorm2d(320, eps=1e-05, momentum=0.1, affine=True, track_running_stats=True)
Mean time: 39.565 ms
Measuring time for FloatFunctional(
  (activation_post_process): Identity()
)
Mean time: 39.440 ms
Measuring time for Identity()
Mean time: 38.848 ms
Measuring time for ConvBNReLU(
  (0): Conv2d(320, 1280, kernel_size=(1, 1), stride=(1, 1), bias=False)
  (1): BatchNorm2d(1280, eps=1e-05, momentum=0.1, affine=True, track_running_stats=True)
  (2): ReLU(inplace=True)
)
Mean time: 37.899 ms
Measuring time for Conv2d(320, 1280, kernel_size=(1, 1), stride=(1, 1), bias=False)
Mean time: 41.934 ms
Measuring time for BatchNorm2d(1280, eps=1e-05, momentum=0.1, affine=True, track_running_stats=True)
Mean time: 38.623 ms
Measuring time for ReLU(inplace=True)
Mean time: 38.663 ms
Measuring time for ModuleList(
  (0): InvertedResidual(
    (conv): Sequential(
      (0): ConvBNReLU(
        (0): Conv2d(1280, 256, kernel_size=(1, 1), stride=(1, 1), bias=False)
        (1): BatchNorm2d(256, eps=1e-05, momentum=0.1, affine=True, track_running_stats=True)
        (2): ReLU(inplace=True)
      )
      (1): ConvBNReLU(
        (0): Conv2d(256, 256, kernel_size=(3, 3), stride=(2, 2), padding=(1, 1), groups=256, bias=False)
        (1): BatchNorm2d(256, eps=1e-05, momentum=0.1, affine=True, track_running_stats=True)
        (2): ReLU(inplace=True)
      )
      (2): Conv2d(256, 512, kernel_size=(1, 1), stride=(1, 1), bias=False)
      (3): BatchNorm2d(512, eps=1e-05, momentum=0.1, affine=True, track_running_stats=True)
    )
    (skip_add): FloatFunctional(
      (activation_post_process): Identity()
    )
  )
  (1): InvertedResidual(
    (conv): Sequential(
      (0): ConvBNReLU(
        (0): Conv2d(512, 128, kernel_size=(1, 1), stride=(1, 1), bias=False)
        (1): BatchNorm2d(128, eps=1e-05, momentum=0.1, affine=True, track_running_stats=True)
        (2): ReLU(inplace=True)
      )
      (1): ConvBNReLU(
        (0): Conv2d(128, 128, kernel_size=(3, 3), stride=(2, 2), padding=(1, 1), groups=128, bias=False)
        (1): BatchNorm2d(128, eps=1e-05, momentum=0.1, affine=True, track_running_stats=True)
        (2): ReLU(inplace=True)
      )
      (2): Conv2d(128, 256, kernel_size=(1, 1), stride=(1, 1), bias=False)
      (3): BatchNorm2d(256, eps=1e-05, momentum=0.1, affine=True, track_running_stats=True)
    )
    (skip_add): FloatFunctional(
      (activation_post_process): Identity()
    )
  )
  (2): InvertedResidual(
    (conv): Sequential(
      (0): ConvBNReLU(
        (0): Conv2d(256, 128, kernel_size=(1, 1), stride=(1, 1), bias=False)
        (1): BatchNorm2d(128, eps=1e-05, momentum=0.1, affine=True, track_running_stats=True)
        (2): ReLU(inplace=True)
      )
      (1): ConvBNReLU(
        (0): Conv2d(128, 128, kernel_size=(3, 3), stride=(2, 2), padding=(1, 1), groups=128, bias=False)
        (1): BatchNorm2d(128, eps=1e-05, momentum=0.1, affine=True, track_running_stats=True)
        (2): ReLU(inplace=True)
      )
      (2): Conv2d(128, 256, kernel_size=(1, 1), stride=(1, 1), bias=False)
      (3): BatchNorm2d(256, eps=1e-05, momentum=0.1, affine=True, track_running_stats=True)
    )
    (skip_add): FloatFunctional(
      (activation_post_process): Identity()
    )
  )
  (3): InvertedResidual(
    (conv): Sequential(
      (0): ConvBNReLU(
        (0): Conv2d(256, 64, kernel_size=(1, 1), stride=(1, 1), bias=False)
        (1): BatchNorm2d(64, eps=1e-05, momentum=0.1, affine=True, track_running_stats=True)
        (2): ReLU(inplace=True)
      )
      (1): ConvBNReLU(
        (0): Conv2d(64, 64, kernel_size=(3, 3), stride=(2, 2), padding=(1, 1), groups=64, bias=False)
        (1): BatchNorm2d(64, eps=1e-05, momentum=0.1, affine=True, track_running_stats=True)
        (2): ReLU(inplace=True)
      )
      (2): Conv2d(64, 64, kernel_size=(1, 1), stride=(1, 1), bias=False)
      (3): BatchNorm2d(64, eps=1e-05, momentum=0.1, affine=True, track_running_stats=True)
    )
    (skip_add): FloatFunctional(
      (activation_post_process): Identity()
    )
  )
)
Mean time: 38.402 ms
Measuring time for InvertedResidual(
  (conv): Sequential(
    (0): ConvBNReLU(
      (0): Conv2d(1280, 256, kernel_size=(1, 1), stride=(1, 1), bias=False)
      (1): BatchNorm2d(256, eps=1e-05, momentum=0.1, affine=True, track_running_stats=True)
      (2): ReLU(inplace=True)
    )
    (1): ConvBNReLU(
      (0): Conv2d(256, 256, kernel_size=(3, 3), stride=(2, 2), padding=(1, 1), groups=256, bias=False)
      (1): BatchNorm2d(256, eps=1e-05, momentum=0.1, affine=True, track_running_stats=True)
      (2): ReLU(inplace=True)
    )
    (2): Conv2d(256, 512, kernel_size=(1, 1), stride=(1, 1), bias=False)
    (3): BatchNorm2d(512, eps=1e-05, momentum=0.1, affine=True, track_running_stats=True)
  )
  (skip_add): FloatFunctional(
    (activation_post_process): Identity()
  )
)
Mean time: 38.341 ms
Measuring time for Sequential(
  (0): ConvBNReLU(
    (0): Conv2d(1280, 256, kernel_size=(1, 1), stride=(1, 1), bias=False)
    (1): BatchNorm2d(256, eps=1e-05, momentum=0.1, affine=True, track_running_stats=True)
    (2): ReLU(inplace=True)
  )
  (1): ConvBNReLU(
    (0): Conv2d(256, 256, kernel_size=(3, 3), stride=(2, 2), padding=(1, 1), groups=256, bias=False)
    (1): BatchNorm2d(256, eps=1e-05, momentum=0.1, affine=True, track_running_stats=True)
    (2): ReLU(inplace=True)
  )
  (2): Conv2d(256, 512, kernel_size=(1, 1), stride=(1, 1), bias=False)
  (3): BatchNorm2d(512, eps=1e-05, momentum=0.1, affine=True, track_running_stats=True)
)
Mean time: 38.001 ms
Measuring time for ConvBNReLU(
  (0): Conv2d(1280, 256, kernel_size=(1, 1), stride=(1, 1), bias=False)
  (1): BatchNorm2d(256, eps=1e-05, momentum=0.1, affine=True, track_running_stats=True)
  (2): ReLU(inplace=True)
)
Mean time: 38.322 ms
Measuring time for Conv2d(1280, 256, kernel_size=(1, 1), stride=(1, 1), bias=False)
Mean time: 38.543 ms
Measuring time for BatchNorm2d(256, eps=1e-05, momentum=0.1, affine=True, track_running_stats=True)
Mean time: 38.145 ms
Measuring time for ReLU(inplace=True)
Mean time: 38.250 ms
Measuring time for ConvBNReLU(
  (0): Conv2d(256, 256, kernel_size=(3, 3), stride=(2, 2), padding=(1, 1), groups=256, bias=False)
  (1): BatchNorm2d(256, eps=1e-05, momentum=0.1, affine=True, track_running_stats=True)
  (2): ReLU(inplace=True)
)
Mean time: 38.396 ms
Measuring time for Conv2d(256, 256, kernel_size=(3, 3), stride=(2, 2), padding=(1, 1), groups=256, bias=False)
Mean time: 38.085 ms
Measuring time for BatchNorm2d(256, eps=1e-05, momentum=0.1, affine=True, track_running_stats=True)
Mean time: 39.354 ms
Measuring time for ReLU(inplace=True)
Mean time: 38.154 ms
Measuring time for Conv2d(256, 512, kernel_size=(1, 1), stride=(1, 1), bias=False)
Mean time: 38.158 ms
Measuring time for BatchNorm2d(512, eps=1e-05, momentum=0.1, affine=True, track_running_stats=True)
Mean time: 38.572 ms
Measuring time for FloatFunctional(
  (activation_post_process): Identity()
)
Mean time: 38.379 ms
Measuring time for Identity()
Mean time: 38.012 ms
Measuring time for InvertedResidual(
  (conv): Sequential(
    (0): ConvBNReLU(
      (0): Conv2d(512, 128, kernel_size=(1, 1), stride=(1, 1), bias=False)
      (1): BatchNorm2d(128, eps=1e-05, momentum=0.1, affine=True, track_running_stats=True)
      (2): ReLU(inplace=True)
    )
    (1): ConvBNReLU(
      (0): Conv2d(128, 128, kernel_size=(3, 3), stride=(2, 2), padding=(1, 1), groups=128, bias=False)
      (1): BatchNorm2d(128, eps=1e-05, momentum=0.1, affine=True, track_running_stats=True)
      (2): ReLU(inplace=True)
    )
    (2): Conv2d(128, 256, kernel_size=(1, 1), stride=(1, 1), bias=False)
    (3): BatchNorm2d(256, eps=1e-05, momentum=0.1, affine=True, track_running_stats=True)
  )
  (skip_add): FloatFunctional(
    (activation_post_process): Identity()
  )
)
Mean time: 37.825 ms
Measuring time for Sequential(
  (0): ConvBNReLU(
    (0): Conv2d(512, 128, kernel_size=(1, 1), stride=(1, 1), bias=False)
    (1): BatchNorm2d(128, eps=1e-05, momentum=0.1, affine=True, track_running_stats=True)
    (2): ReLU(inplace=True)
  )
  (1): ConvBNReLU(
    (0): Conv2d(128, 128, kernel_size=(3, 3), stride=(2, 2), padding=(1, 1), groups=128, bias=False)
    (1): BatchNorm2d(128, eps=1e-05, momentum=0.1, affine=True, track_running_stats=True)
    (2): ReLU(inplace=True)
  )
  (2): Conv2d(128, 256, kernel_size=(1, 1), stride=(1, 1), bias=False)
  (3): BatchNorm2d(256, eps=1e-05, momentum=0.1, affine=True, track_running_stats=True)
)
Mean time: 38.172 ms
Measuring time for ConvBNReLU(
  (0): Conv2d(512, 128, kernel_size=(1, 1), stride=(1, 1), bias=False)
  (1): BatchNorm2d(128, eps=1e-05, momentum=0.1, affine=True, track_running_stats=True)
  (2): ReLU(inplace=True)
)
Mean time: 38.013 ms
Measuring time for Conv2d(512, 128, kernel_size=(1, 1), stride=(1, 1), bias=False)
Mean time: 38.183 ms
Measuring time for BatchNorm2d(128, eps=1e-05, momentum=0.1, affine=True, track_running_stats=True)
Mean time: 38.314 ms
Measuring time for ReLU(inplace=True)
Mean time: 38.792 ms
Measuring time for ConvBNReLU(
  (0): Conv2d(128, 128, kernel_size=(3, 3), stride=(2, 2), padding=(1, 1), groups=128, bias=False)
  (1): BatchNorm2d(128, eps=1e-05, momentum=0.1, affine=True, track_running_stats=True)
  (2): ReLU(inplace=True)
)
Mean time: 45.615 ms
Measuring time for Conv2d(128, 128, kernel_size=(3, 3), stride=(2, 2), padding=(1, 1), groups=128, bias=False)
Mean time: 40.120 ms
Measuring time for BatchNorm2d(128, eps=1e-05, momentum=0.1, affine=True, track_running_stats=True)
Mean time: 38.043 ms
Measuring time for ReLU(inplace=True)
Mean time: 38.235 ms
Measuring time for Conv2d(128, 256, kernel_size=(1, 1), stride=(1, 1), bias=False)
Mean time: 38.257 ms
Measuring time for BatchNorm2d(256, eps=1e-05, momentum=0.1, affine=True, track_running_stats=True)
Mean time: 38.369 ms
Measuring time for FloatFunctional(
  (activation_post_process): Identity()
)
Mean time: 38.108 ms
Measuring time for Identity()
Mean time: 38.318 ms
Measuring time for InvertedResidual(
  (conv): Sequential(
    (0): ConvBNReLU(
      (0): Conv2d(256, 128, kernel_size=(1, 1), stride=(1, 1), bias=False)
      (1): BatchNorm2d(128, eps=1e-05, momentum=0.1, affine=True, track_running_stats=True)
      (2): ReLU(inplace=True)
    )
    (1): ConvBNReLU(
      (0): Conv2d(128, 128, kernel_size=(3, 3), stride=(2, 2), padding=(1, 1), groups=128, bias=False)
      (1): BatchNorm2d(128, eps=1e-05, momentum=0.1, affine=True, track_running_stats=True)
      (2): ReLU(inplace=True)
    )
    (2): Conv2d(128, 256, kernel_size=(1, 1), stride=(1, 1), bias=False)
    (3): BatchNorm2d(256, eps=1e-05, momentum=0.1, affine=True, track_running_stats=True)
  )
  (skip_add): FloatFunctional(
    (activation_post_process): Identity()
  )
)
Mean time: 38.209 ms
Measuring time for Sequential(
  (0): ConvBNReLU(
    (0): Conv2d(256, 128, kernel_size=(1, 1), stride=(1, 1), bias=False)
    (1): BatchNorm2d(128, eps=1e-05, momentum=0.1, affine=True, track_running_stats=True)
    (2): ReLU(inplace=True)
  )
  (1): ConvBNReLU(
    (0): Conv2d(128, 128, kernel_size=(3, 3), stride=(2, 2), padding=(1, 1), groups=128, bias=False)
    (1): BatchNorm2d(128, eps=1e-05, momentum=0.1, affine=True, track_running_stats=True)
    (2): ReLU(inplace=True)
  )
  (2): Conv2d(128, 256, kernel_size=(1, 1), stride=(1, 1), bias=False)
  (3): BatchNorm2d(256, eps=1e-05, momentum=0.1, affine=True, track_running_stats=True)
)
Mean time: 38.362 ms
Measuring time for ConvBNReLU(
  (0): Conv2d(256, 128, kernel_size=(1, 1), stride=(1, 1), bias=False)
  (1): BatchNorm2d(128, eps=1e-05, momentum=0.1, affine=True, track_running_stats=True)
  (2): ReLU(inplace=True)
)
Mean time: 38.710 ms
Measuring time for Conv2d(256, 128, kernel_size=(1, 1), stride=(1, 1), bias=False)
Mean time: 38.068 ms
Measuring time for BatchNorm2d(128, eps=1e-05, momentum=0.1, affine=True, track_running_stats=True)
Mean time: 38.383 ms
Measuring time for ReLU(inplace=True)
Mean time: 38.383 ms
Measuring time for ConvBNReLU(
  (0): Conv2d(128, 128, kernel_size=(3, 3), stride=(2, 2), padding=(1, 1), groups=128, bias=False)
  (1): BatchNorm2d(128, eps=1e-05, momentum=0.1, affine=True, track_running_stats=True)
  (2): ReLU(inplace=True)
)
Mean time: 38.554 ms
Measuring time for Conv2d(128, 128, kernel_size=(3, 3), stride=(2, 2), padding=(1, 1), groups=128, bias=False)
Mean time: 37.939 ms
Measuring time for BatchNorm2d(128, eps=1e-05, momentum=0.1, affine=True, track_running_stats=True)
Mean time: 38.125 ms
Measuring time for ReLU(inplace=True)
Mean time: 38.469 ms
Measuring time for Conv2d(128, 256, kernel_size=(1, 1), stride=(1, 1), bias=False)
Mean time: 38.133 ms
Measuring time for BatchNorm2d(256, eps=1e-05, momentum=0.1, affine=True, track_running_stats=True)
Mean time: 38.601 ms
Measuring time for FloatFunctional(
  (activation_post_process): Identity()
)
Mean time: 39.282 ms
Measuring time for Identity()
Mean time: 38.373 ms
Measuring time for InvertedResidual(
  (conv): Sequential(
    (0): ConvBNReLU(
      (0): Conv2d(256, 64, kernel_size=(1, 1), stride=(1, 1), bias=False)
      (1): BatchNorm2d(64, eps=1e-05, momentum=0.1, affine=True, track_running_stats=True)
      (2): ReLU(inplace=True)
    )
    (1): ConvBNReLU(
      (0): Conv2d(64, 64, kernel_size=(3, 3), stride=(2, 2), padding=(1, 1), groups=64, bias=False)
      (1): BatchNorm2d(64, eps=1e-05, momentum=0.1, affine=True, track_running_stats=True)
      (2): ReLU(inplace=True)
    )
    (2): Conv2d(64, 64, kernel_size=(1, 1), stride=(1, 1), bias=False)
    (3): BatchNorm2d(64, eps=1e-05, momentum=0.1, affine=True, track_running_stats=True)
  )
  (skip_add): FloatFunctional(
    (activation_post_process): Identity()
  )
)
Mean time: 38.398 ms
Measuring time for Sequential(
  (0): ConvBNReLU(
    (0): Conv2d(256, 64, kernel_size=(1, 1), stride=(1, 1), bias=False)
    (1): BatchNorm2d(64, eps=1e-05, momentum=0.1, affine=True, track_running_stats=True)
    (2): ReLU(inplace=True)
  )
  (1): ConvBNReLU(
    (0): Conv2d(64, 64, kernel_size=(3, 3), stride=(2, 2), padding=(1, 1), groups=64, bias=False)
    (1): BatchNorm2d(64, eps=1e-05, momentum=0.1, affine=True, track_running_stats=True)
    (2): ReLU(inplace=True)
  )
  (2): Conv2d(64, 64, kernel_size=(1, 1), stride=(1, 1), bias=False)
  (3): BatchNorm2d(64, eps=1e-05, momentum=0.1, affine=True, track_running_stats=True)
)
Mean time: 38.069 ms
Measuring time for ConvBNReLU(
  (0): Conv2d(256, 64, kernel_size=(1, 1), stride=(1, 1), bias=False)
  (1): BatchNorm2d(64, eps=1e-05, momentum=0.1, affine=True, track_running_stats=True)
  (2): ReLU(inplace=True)
)
Mean time: 38.032 ms
Measuring time for Conv2d(256, 64, kernel_size=(1, 1), stride=(1, 1), bias=False)
Mean time: 37.964 ms
Measuring time for BatchNorm2d(64, eps=1e-05, momentum=0.1, affine=True, track_running_stats=True)
Mean time: 38.281 ms
Measuring time for ReLU(inplace=True)
Mean time: 38.566 ms
Measuring time for ConvBNReLU(
  (0): Conv2d(64, 64, kernel_size=(3, 3), stride=(2, 2), padding=(1, 1), groups=64, bias=False)
  (1): BatchNorm2d(64, eps=1e-05, momentum=0.1, affine=True, track_running_stats=True)
  (2): ReLU(inplace=True)
)
Mean time: 38.177 ms
Measuring time for Conv2d(64, 64, kernel_size=(3, 3), stride=(2, 2), padding=(1, 1), groups=64, bias=False)
Mean time: 39.640 ms
Measuring time for BatchNorm2d(64, eps=1e-05, momentum=0.1, affine=True, track_running_stats=True)
Mean time: 38.367 ms
Measuring time for ReLU(inplace=True)
Mean time: 38.580 ms
Measuring time for Conv2d(64, 64, kernel_size=(1, 1), stride=(1, 1), bias=False)
Mean time: 39.841 ms
Measuring time for BatchNorm2d(64, eps=1e-05, momentum=0.1, affine=True, track_running_stats=True)
Mean time: 38.368 ms
Measuring time for FloatFunctional(
  (activation_post_process): Identity()
)
Mean time: 38.308 ms
Measuring time for Identity()
Mean time: 38.363 ms
Measuring time for L2Norm()
Mean time: 38.537 ms
Measuring time for ModuleList(
  (0): Conv2d(96, 24, kernel_size=(3, 3), stride=(1, 1), padding=(1, 1))
  (1): Conv2d(1280, 24, kernel_size=(3, 3), stride=(1, 1), padding=(1, 1))
  (2): Conv2d(512, 24, kernel_size=(3, 3), stride=(1, 1), padding=(1, 1))
  (3): Conv2d(256, 24, kernel_size=(3, 3), stride=(1, 1), padding=(1, 1))
  (4): Conv2d(256, 24, kernel_size=(3, 3), stride=(1, 1), padding=(1, 1))
  (5): Conv2d(64, 24, kernel_size=(3, 3), stride=(1, 1), padding=(1, 1))
)
Mean time: 38.207 ms
Measuring time for Conv2d(96, 24, kernel_size=(3, 3), stride=(1, 1), padding=(1, 1))
Mean time: 38.180 ms
Measuring time for Conv2d(1280, 24, kernel_size=(3, 3), stride=(1, 1), padding=(1, 1))
Mean time: 38.045 ms
Measuring time for Conv2d(512, 24, kernel_size=(3, 3), stride=(1, 1), padding=(1, 1))
Mean time: 37.866 ms
Measuring time for Conv2d(256, 24, kernel_size=(3, 3), stride=(1, 1), padding=(1, 1))
Mean time: 38.075 ms
Measuring time for Conv2d(256, 24, kernel_size=(3, 3), stride=(1, 1), padding=(1, 1))
Mean time: 38.188 ms
Measuring time for Conv2d(64, 24, kernel_size=(3, 3), stride=(1, 1), padding=(1, 1))
Mean time: 38.302 ms
Measuring time for ModuleList(
  (0): Conv2d(96, 24, kernel_size=(3, 3), stride=(1, 1), padding=(1, 1))
  (1): Conv2d(1280, 24, kernel_size=(3, 3), stride=(1, 1), padding=(1, 1))
  (2): Conv2d(512, 24, kernel_size=(3, 3), stride=(1, 1), padding=(1, 1))
  (3): Conv2d(256, 24, kernel_size=(3, 3), stride=(1, 1), padding=(1, 1))
  (4): Conv2d(256, 24, kernel_size=(3, 3), stride=(1, 1), padding=(1, 1))
  (5): Conv2d(64, 24, kernel_size=(3, 3), stride=(1, 1), padding=(1, 1))
)
Mean time: 38.266 ms
Measuring time for Conv2d(96, 24, kernel_size=(3, 3), stride=(1, 1), padding=(1, 1))
Mean time: 38.658 ms
Measuring time for Conv2d(1280, 24, kernel_size=(3, 3), stride=(1, 1), padding=(1, 1))
Mean time: 38.241 ms
Measuring time for Conv2d(512, 24, kernel_size=(3, 3), stride=(1, 1), padding=(1, 1))
Mean time: 38.826 ms
…
